{
  "format": "graph-model",
  "generatedBy": "2.12.0",
  "convertedBy": "TensorFlow.js Converter v4.5.0",
  "signature": {
    "inputs": {
      "input": {
        "name": "input:0",
        "dtype": "DT_FLOAT",
        "tensorShape": {
          "dim": [
            { "size": "1" },
            { "size": "3" },
            { "size": "224" },
            { "size": "224" }
          ]
        }
      }
    },
    "outputs": {
      "output": {
        "name": "Identity:0",
        "dtype": "DT_FLOAT",
        "tensorShape": { "dim": [{ "size": "-1" }, { "size": "5" }] }
      }
    }
  },
  "modelTopology": {
    "node": [
      {
        "name": "PartitionedCall/strided_slice/stack",
        "op": "Const",
        "attr": {
          "dtype": { "type": "DT_INT32" },
          "value": {
            "tensor": {
              "dtype": "DT_INT32",
              "tensorShape": { "dim": [{ "size": "1" }] }
            }
          }
        }
      },
      {
        "name": "PartitionedCall/strided_slice/stack_1",
        "op": "Const",
        "attr": {
          "value": {
            "tensor": {
              "dtype": "DT_INT32",
              "tensorShape": { "dim": [{ "size": "1" }] }
            }
          },
          "dtype": { "type": "DT_INT32" }
        }
      },
      {
        "name": "PartitionedCall/strided_slice/stack_2",
        "op": "Const",
        "attr": {
          "value": {
            "tensor": {
              "dtype": "DT_INT32",
              "tensorShape": { "dim": [{ "size": "1" }] }
            }
          },
          "dtype": { "type": "DT_INT32" }
        }
      },
      {
        "name": "PartitionedCall/Const_102",
        "op": "Const",
        "attr": {
          "dtype": { "type": "DT_INT32" },
          "value": {
            "tensor": {
              "dtype": "DT_INT32",
              "tensorShape": { "dim": [{ "size": "1" }] }
            }
          }
        }
      },
      {
        "name": "ConstantFolding/PartitionedCall/split_76-folded-1",
        "op": "Const",
        "attr": {
          "dtype": { "type": "DT_INT32" },
          "value": {
            "tensor": {
              "dtype": "DT_INT32",
              "tensorShape": { "dim": [{ "size": "2" }] }
            }
          }
        }
      },
      {
        "name": "PartitionedCall/transpose_232/perm",
        "op": "Const",
        "attr": {
          "value": {
            "tensor": {
              "dtype": "DT_INT32",
              "tensorShape": { "dim": [{ "size": "4" }] }
            }
          },
          "dtype": { "type": "DT_INT32" }
        }
      },
      {
        "name": "PartitionedCall/split_77",
        "op": "Const",
        "attr": {
          "value": {
            "tensor": {
              "dtype": "DT_FLOAT",
              "tensorShape": {
                "dim": [
                  { "size": "1" },
                  { "size": "1" },
                  { "size": "1152" },
                  { "size": "48" }
                ]
              }
            }
          },
          "dtype": { "type": "DT_FLOAT" }
        }
      },
      {
        "name": "unknown_154",
        "op": "Const",
        "attr": {
          "value": {
            "tensor": {
              "dtype": "DT_FLOAT",
              "tensorShape": { "dim": [{ "size": "48" }] }
            }
          },
          "dtype": { "type": "DT_FLOAT" }
        }
      },
      {
        "name": "PartitionedCall/transpose_233/perm",
        "op": "Const",
        "attr": {
          "value": {
            "tensor": {
              "dtype": "DT_INT32",
              "tensorShape": { "dim": [{ "size": "4" }] }
            }
          },
          "dtype": { "type": "DT_INT32" }
        }
      },
      {
        "name": "PartitionedCall/transpose_235/perm",
        "op": "Const",
        "attr": {
          "value": {
            "tensor": {
              "dtype": "DT_INT32",
              "tensorShape": { "dim": [{ "size": "4" }] }
            }
          },
          "dtype": { "type": "DT_INT32" }
        }
      },
      {
        "name": "PartitionedCall/split_78",
        "op": "Const",
        "attr": {
          "value": {
            "tensor": {
              "dtype": "DT_FLOAT",
              "tensorShape": {
                "dim": [
                  { "size": "1" },
                  { "size": "1" },
                  { "size": "48" },
                  { "size": "1152" }
                ]
              }
            }
          },
          "dtype": { "type": "DT_FLOAT" }
        }
      },
      {
        "name": "unknown_156",
        "op": "Const",
        "attr": {
          "dtype": { "type": "DT_FLOAT" },
          "value": {
            "tensor": {
              "dtype": "DT_FLOAT",
              "tensorShape": { "dim": [{ "size": "1152" }] }
            }
          }
        }
      },
      {
        "name": "PartitionedCall/transpose_236/perm",
        "op": "Const",
        "attr": {
          "dtype": { "type": "DT_INT32" },
          "value": {
            "tensor": {
              "dtype": "DT_INT32",
              "tensorShape": { "dim": [{ "size": "4" }] }
            }
          }
        }
      },
      {
        "name": "PartitionedCall/onnx_tf_prefix_/_blocks.15/_depthwise_conv/static_padding/Constant_8",
        "op": "Const",
        "attr": {
          "value": { "tensor": { "dtype": "DT_FLOAT", "tensorShape": {} } },
          "dtype": { "type": "DT_FLOAT" }
        }
      },
      {
        "name": "ConstantFolding/PartitionedCall/split_71-folded-1",
        "op": "Const",
        "attr": {
          "value": {
            "tensor": {
              "dtype": "DT_INT32",
              "tensorShape": { "dim": [{ "size": "2" }] }
            }
          },
          "dtype": { "type": "DT_INT32" }
        }
      },
      {
        "name": "PartitionedCall/transpose_217/perm",
        "op": "Const",
        "attr": {
          "value": {
            "tensor": {
              "dtype": "DT_INT32",
              "tensorShape": { "dim": [{ "size": "4" }] }
            }
          },
          "dtype": { "type": "DT_INT32" }
        }
      },
      {
        "name": "PartitionedCall/split_72",
        "op": "Const",
        "attr": {
          "value": {
            "tensor": {
              "dtype": "DT_FLOAT",
              "tensorShape": {
                "dim": [
                  { "size": "1" },
                  { "size": "1" },
                  { "size": "1152" },
                  { "size": "48" }
                ]
              }
            }
          },
          "dtype": { "type": "DT_FLOAT" }
        }
      },
      {
        "name": "unknown_144",
        "op": "Const",
        "attr": {
          "value": {
            "tensor": {
              "dtype": "DT_FLOAT",
              "tensorShape": { "dim": [{ "size": "48" }] }
            }
          },
          "dtype": { "type": "DT_FLOAT" }
        }
      },
      {
        "name": "PartitionedCall/transpose_218/perm",
        "op": "Const",
        "attr": {
          "dtype": { "type": "DT_INT32" },
          "value": {
            "tensor": {
              "dtype": "DT_INT32",
              "tensorShape": { "dim": [{ "size": "4" }] }
            }
          }
        }
      },
      {
        "name": "PartitionedCall/transpose_220/perm",
        "op": "Const",
        "attr": {
          "value": {
            "tensor": {
              "dtype": "DT_INT32",
              "tensorShape": { "dim": [{ "size": "4" }] }
            }
          },
          "dtype": { "type": "DT_INT32" }
        }
      },
      {
        "name": "PartitionedCall/split_73",
        "op": "Const",
        "attr": {
          "value": {
            "tensor": {
              "dtype": "DT_FLOAT",
              "tensorShape": {
                "dim": [
                  { "size": "1" },
                  { "size": "1" },
                  { "size": "48" },
                  { "size": "1152" }
                ]
              }
            }
          },
          "dtype": { "type": "DT_FLOAT" }
        }
      },
      {
        "name": "unknown_146",
        "op": "Const",
        "attr": {
          "dtype": { "type": "DT_FLOAT" },
          "value": {
            "tensor": {
              "dtype": "DT_FLOAT",
              "tensorShape": { "dim": [{ "size": "1152" }] }
            }
          }
        }
      },
      {
        "name": "PartitionedCall/transpose_221/perm",
        "op": "Const",
        "attr": {
          "dtype": { "type": "DT_INT32" },
          "value": {
            "tensor": {
              "dtype": "DT_INT32",
              "tensorShape": { "dim": [{ "size": "4" }] }
            }
          }
        }
      },
      {
        "name": "PartitionedCall/onnx_tf_prefix_/_blocks.14/_depthwise_conv/static_padding/Constant_8",
        "op": "Const",
        "attr": {
          "value": { "tensor": { "dtype": "DT_FLOAT", "tensorShape": {} } },
          "dtype": { "type": "DT_FLOAT" }
        }
      },
      {
        "name": "PartitionedCall/transpose_211/perm",
        "op": "Const",
        "attr": {
          "value": {
            "tensor": {
              "dtype": "DT_INT32",
              "tensorShape": { "dim": [{ "size": "4" }] }
            }
          },
          "dtype": { "type": "DT_INT32" }
        }
      },
      {
        "name": "PartitionedCall/split_70",
        "op": "Const",
        "attr": {
          "value": {
            "tensor": {
              "dtype": "DT_FLOAT",
              "tensorShape": {
                "dim": [
                  { "size": "1" },
                  { "size": "1" },
                  { "size": "192" },
                  { "size": "1152" }
                ]
              }
            }
          },
          "dtype": { "type": "DT_FLOAT" }
        }
      },
      {
        "name": "unknown_140",
        "op": "Const",
        "attr": {
          "value": {
            "tensor": {
              "dtype": "DT_FLOAT",
              "tensorShape": { "dim": [{ "size": "1152" }] }
            }
          },
          "dtype": { "type": "DT_FLOAT" }
        }
      },
      {
        "name": "PartitionedCall/transpose_212/perm",
        "op": "Const",
        "attr": {
          "dtype": { "type": "DT_INT32" },
          "value": {
            "tensor": {
              "dtype": "DT_INT32",
              "tensorShape": { "dim": [{ "size": "4" }] }
            }
          }
        }
      },
      {
        "name": "PartitionedCall/onnx_tf_prefix_/_blocks.14/_depthwise_conv/static_padding/Concat",
        "op": "Const",
        "attr": {
          "dtype": { "type": "DT_INT64" },
          "value": {
            "tensor": {
              "dtype": "DT_INT64",
              "tensorShape": { "dim": [{ "size": "8" }] }
            }
          }
        }
      },
      {
        "name": "PartitionedCall/onnx_tf_prefix_/_blocks.14/_depthwise_conv/static_padding/Constant_2",
        "op": "Const",
        "attr": {
          "value": {
            "tensor": {
              "dtype": "DT_INT64",
              "tensorShape": { "dim": [{ "size": "2" }] }
            }
          },
          "dtype": { "type": "DT_INT64" }
        }
      },
      {
        "name": "PartitionedCall/Where_30",
        "op": "Const",
        "attr": {
          "value": {
            "tensor": {
              "dtype": "DT_INT64",
              "tensorShape": { "dim": [{}, { "size": "1" }] }
            }
          },
          "dtype": { "type": "DT_INT64" }
        }
      },
      {
        "name": "PartitionedCall/Cast_60",
        "op": "Const",
        "attr": {
          "dtype": { "type": "DT_INT64" },
          "value": {
            "tensor": {
              "dtype": "DT_INT64",
              "tensorShape": { "dim": [{ "size": "1" }] }
            }
          }
        }
      },
      {
        "name": "PartitionedCall/GatherV2_30",
        "op": "Const",
        "attr": {
          "value": {
            "tensor": { "dtype": "DT_INT64", "tensorShape": { "dim": [{}] } }
          },
          "dtype": { "type": "DT_INT64" }
        }
      },
      {
        "name": "PartitionedCall/zeros_60",
        "op": "Const",
        "attr": {
          "dtype": { "type": "DT_INT64" },
          "value": { "tensor": { "dtype": "DT_INT64", "tensorShape": {} } }
        }
      },
      {
        "name": "PartitionedCall/SelectV2_61",
        "op": "Const",
        "attr": {
          "value": {
            "tensor": {
              "dtype": "DT_INT64",
              "tensorShape": { "dim": [{ "size": "1" }] }
            }
          },
          "dtype": { "type": "DT_INT64" }
        }
      },
      {
        "name": "PartitionedCall/zeros_61",
        "op": "Const",
        "attr": {
          "dtype": { "type": "DT_INT64" },
          "value": { "tensor": { "dtype": "DT_INT64", "tensorShape": {} } }
        }
      },
      {
        "name": "PartitionedCall/Const_92",
        "op": "Const",
        "attr": {
          "dtype": { "type": "DT_INT64" },
          "value": { "tensor": { "dtype": "DT_INT64", "tensorShape": {} } }
        }
      },
      {
        "name": "PartitionedCall/Shape_148",
        "op": "Const",
        "attr": {
          "value": {
            "tensor": {
              "dtype": "DT_INT64",
              "tensorShape": { "dim": [{ "size": "2" }] }
            }
          },
          "dtype": { "type": "DT_INT64" }
        }
      },
      {
        "name": "PartitionedCall/SelectV2_62",
        "op": "Const",
        "attr": {
          "value": {
            "tensor": {
              "dtype": "DT_INT64",
              "tensorShape": { "dim": [{ "size": "1" }] }
            }
          },
          "dtype": { "type": "DT_INT64" }
        }
      },
      {
        "name": "PartitionedCall/Const_91",
        "op": "Const",
        "attr": {
          "dtype": { "type": "DT_INT64" },
          "value": { "tensor": { "dtype": "DT_INT64", "tensorShape": {} } }
        }
      },
      {
        "name": "PartitionedCall/ExpandDims_15",
        "op": "Const",
        "attr": {
          "value": {
            "tensor": {
              "dtype": "DT_INT64",
              "tensorShape": { "dim": [{ "size": "1" }, { "size": "1" }] }
            }
          },
          "dtype": { "type": "DT_INT64" }
        }
      },
      {
        "name": "PartitionedCall/Cast_62",
        "op": "Const",
        "attr": {
          "value": {
            "tensor": {
              "dtype": "DT_INT64",
              "tensorShape": { "dim": [{ "size": "1" }] }
            }
          },
          "dtype": { "type": "DT_INT64" }
        }
      },
      {
        "name": "PartitionedCall/onnx_tf_prefix_/_blocks.14/_depthwise_conv/static_padding/Constant_6",
        "op": "Const",
        "attr": {
          "value": {
            "tensor": {
              "dtype": "DT_INT64",
              "tensorShape": { "dim": [{ "size": "1" }] }
            }
          },
          "dtype": { "type": "DT_INT64" }
        }
      },
      {
        "name": "PartitionedCall/Const_93",
        "op": "Const",
        "attr": {
          "dtype": { "type": "DT_INT64" },
          "value": { "tensor": { "dtype": "DT_INT64", "tensorShape": {} } }
        }
      },
      {
        "name": "PartitionedCall/onnx_tf_prefix_/_blocks.14/_depthwise_conv/static_padding/Transpose/perm",
        "op": "Const",
        "attr": {
          "dtype": { "type": "DT_INT32" },
          "value": {
            "tensor": {
              "dtype": "DT_INT32",
              "tensorShape": { "dim": [{ "size": "2" }] }
            }
          }
        }
      },
      {
        "name": "PartitionedCall/onnx_tf_prefix_/_blocks.14/_depthwise_conv/static_padding/Constant_7",
        "op": "Const",
        "attr": {
          "dtype": { "type": "DT_INT64" },
          "value": {
            "tensor": {
              "dtype": "DT_INT64",
              "tensorShape": { "dim": [{ "size": "1" }] }
            }
          }
        }
      },
      {
        "name": "PartitionedCall/Where_31",
        "op": "Const",
        "attr": {
          "value": {
            "tensor": {
              "dtype": "DT_INT64",
              "tensorShape": { "dim": [{}, { "size": "1" }] }
            }
          },
          "dtype": { "type": "DT_INT64" }
        }
      },
      {
        "name": "PartitionedCall/Cast_63",
        "op": "Const",
        "attr": {
          "dtype": { "type": "DT_INT64" },
          "value": {
            "tensor": {
              "dtype": "DT_INT64",
              "tensorShape": { "dim": [{ "size": "1" }] }
            }
          }
        }
      },
      {
        "name": "PartitionedCall/GatherV2_31",
        "op": "Const",
        "attr": {
          "dtype": { "type": "DT_INT64" },
          "value": {
            "tensor": { "dtype": "DT_INT64", "tensorShape": { "dim": [{}] } }
          }
        }
      },
      {
        "name": "PartitionedCall/zeros_62",
        "op": "Const",
        "attr": {
          "dtype": { "type": "DT_INT64" },
          "value": { "tensor": { "dtype": "DT_INT64", "tensorShape": {} } }
        }
      },
      {
        "name": "PartitionedCall/zeros_63",
        "op": "Const",
        "attr": {
          "value": {
            "tensor": {
              "dtype": "DT_INT64",
              "tensorShape": { "dim": [{ "size": "1" }] }
            }
          },
          "dtype": { "type": "DT_INT64" }
        }
      },
      {
        "name": "PartitionedCall/Const_95",
        "op": "Const",
        "attr": {
          "dtype": { "type": "DT_INT32" },
          "value": {
            "tensor": {
              "dtype": "DT_INT32",
              "tensorShape": { "dim": [{ "size": "1" }] }
            }
          }
        }
      },
      {
        "name": "PartitionedCall/transpose_214/perm",
        "op": "Const",
        "attr": {
          "dtype": { "type": "DT_INT32" },
          "value": {
            "tensor": {
              "dtype": "DT_INT32",
              "tensorShape": { "dim": [{ "size": "4" }] }
            }
          }
        }
      },
      {
        "name": "PartitionedCall/Reshape_30",
        "op": "Const",
        "attr": {
          "value": {
            "tensor": {
              "dtype": "DT_FLOAT",
              "tensorShape": {
                "dim": [
                  { "size": "5" },
                  { "size": "5" },
                  { "size": "1152" },
                  { "size": "1" }
                ]
              }
            }
          },
          "dtype": { "type": "DT_FLOAT" }
        }
      },
      {
        "name": "unknown_142",
        "op": "Const",
        "attr": {
          "value": {
            "tensor": {
              "dtype": "DT_FLOAT",
              "tensorShape": { "dim": [{ "size": "1152" }] }
            }
          },
          "dtype": { "type": "DT_FLOAT" }
        }
      },
      {
        "name": "PartitionedCall/transpose_215/perm",
        "op": "Const",
        "attr": {
          "value": {
            "tensor": {
              "dtype": "DT_INT32",
              "tensorShape": { "dim": [{ "size": "4" }] }
            }
          },
          "dtype": { "type": "DT_INT32" }
        }
      },
      {
        "name": "PartitionedCall/transpose_223/perm",
        "op": "Const",
        "attr": {
          "dtype": { "type": "DT_INT32" },
          "value": {
            "tensor": {
              "dtype": "DT_INT32",
              "tensorShape": { "dim": [{ "size": "4" }] }
            }
          }
        }
      },
      {
        "name": "PartitionedCall/split_74",
        "op": "Const",
        "attr": {
          "dtype": { "type": "DT_FLOAT" },
          "value": {
            "tensor": {
              "dtype": "DT_FLOAT",
              "tensorShape": {
                "dim": [
                  { "size": "1" },
                  { "size": "1" },
                  { "size": "1152" },
                  { "size": "192" }
                ]
              }
            }
          }
        }
      },
      {
        "name": "unknown_148",
        "op": "Const",
        "attr": {
          "value": {
            "tensor": {
              "dtype": "DT_FLOAT",
              "tensorShape": { "dim": [{ "size": "192" }] }
            }
          },
          "dtype": { "type": "DT_FLOAT" }
        }
      },
      {
        "name": "PartitionedCall/transpose_224/perm",
        "op": "Const",
        "attr": {
          "dtype": { "type": "DT_INT32" },
          "value": {
            "tensor": {
              "dtype": "DT_INT32",
              "tensorShape": { "dim": [{ "size": "4" }] }
            }
          }
        }
      },
      {
        "name": "ConstantFolding/PartitionedCall/split_66-folded-1",
        "op": "Const",
        "attr": {
          "value": {
            "tensor": {
              "dtype": "DT_INT32",
              "tensorShape": { "dim": [{ "size": "2" }] }
            }
          },
          "dtype": { "type": "DT_INT32" }
        }
      },
      {
        "name": "PartitionedCall/transpose_202/perm",
        "op": "Const",
        "attr": {
          "value": {
            "tensor": {
              "dtype": "DT_INT32",
              "tensorShape": { "dim": [{ "size": "4" }] }
            }
          },
          "dtype": { "type": "DT_INT32" }
        }
      },
      {
        "name": "PartitionedCall/split_67",
        "op": "Const",
        "attr": {
          "dtype": { "type": "DT_FLOAT" },
          "value": {
            "tensor": {
              "dtype": "DT_FLOAT",
              "tensorShape": {
                "dim": [
                  { "size": "1" },
                  { "size": "1" },
                  { "size": "1152" },
                  { "size": "48" }
                ]
              }
            }
          }
        }
      },
      {
        "name": "unknown_134",
        "op": "Const",
        "attr": {
          "value": {
            "tensor": {
              "dtype": "DT_FLOAT",
              "tensorShape": { "dim": [{ "size": "48" }] }
            }
          },
          "dtype": { "type": "DT_FLOAT" }
        }
      },
      {
        "name": "PartitionedCall/transpose_203/perm",
        "op": "Const",
        "attr": {
          "dtype": { "type": "DT_INT32" },
          "value": {
            "tensor": {
              "dtype": "DT_INT32",
              "tensorShape": { "dim": [{ "size": "4" }] }
            }
          }
        }
      },
      {
        "name": "PartitionedCall/transpose_205/perm",
        "op": "Const",
        "attr": {
          "value": {
            "tensor": {
              "dtype": "DT_INT32",
              "tensorShape": { "dim": [{ "size": "4" }] }
            }
          },
          "dtype": { "type": "DT_INT32" }
        }
      },
      {
        "name": "PartitionedCall/split_68",
        "op": "Const",
        "attr": {
          "value": {
            "tensor": {
              "dtype": "DT_FLOAT",
              "tensorShape": {
                "dim": [
                  { "size": "1" },
                  { "size": "1" },
                  { "size": "48" },
                  { "size": "1152" }
                ]
              }
            }
          },
          "dtype": { "type": "DT_FLOAT" }
        }
      },
      {
        "name": "unknown_136",
        "op": "Const",
        "attr": {
          "value": {
            "tensor": {
              "dtype": "DT_FLOAT",
              "tensorShape": { "dim": [{ "size": "1152" }] }
            }
          },
          "dtype": { "type": "DT_FLOAT" }
        }
      },
      {
        "name": "PartitionedCall/transpose_206/perm",
        "op": "Const",
        "attr": {
          "dtype": { "type": "DT_INT32" },
          "value": {
            "tensor": {
              "dtype": "DT_INT32",
              "tensorShape": { "dim": [{ "size": "4" }] }
            }
          }
        }
      },
      {
        "name": "PartitionedCall/onnx_tf_prefix_/_blocks.13/_depthwise_conv/static_padding/Constant_8",
        "op": "Const",
        "attr": {
          "value": { "tensor": { "dtype": "DT_FLOAT", "tensorShape": {} } },
          "dtype": { "type": "DT_FLOAT" }
        }
      },
      {
        "name": "PartitionedCall/transpose_196/perm",
        "op": "Const",
        "attr": {
          "value": {
            "tensor": {
              "dtype": "DT_INT32",
              "tensorShape": { "dim": [{ "size": "4" }] }
            }
          },
          "dtype": { "type": "DT_INT32" }
        }
      },
      {
        "name": "PartitionedCall/split_65",
        "op": "Const",
        "attr": {
          "dtype": { "type": "DT_FLOAT" },
          "value": {
            "tensor": {
              "dtype": "DT_FLOAT",
              "tensorShape": {
                "dim": [
                  { "size": "1" },
                  { "size": "1" },
                  { "size": "192" },
                  { "size": "1152" }
                ]
              }
            }
          }
        }
      },
      {
        "name": "unknown_130",
        "op": "Const",
        "attr": {
          "dtype": { "type": "DT_FLOAT" },
          "value": {
            "tensor": {
              "dtype": "DT_FLOAT",
              "tensorShape": { "dim": [{ "size": "1152" }] }
            }
          }
        }
      },
      {
        "name": "PartitionedCall/transpose_197/perm",
        "op": "Const",
        "attr": {
          "value": {
            "tensor": {
              "dtype": "DT_INT32",
              "tensorShape": { "dim": [{ "size": "4" }] }
            }
          },
          "dtype": { "type": "DT_INT32" }
        }
      },
      {
        "name": "PartitionedCall/onnx_tf_prefix_/_blocks.13/_depthwise_conv/static_padding/Concat",
        "op": "Const",
        "attr": {
          "value": {
            "tensor": {
              "dtype": "DT_INT64",
              "tensorShape": { "dim": [{ "size": "8" }] }
            }
          },
          "dtype": { "type": "DT_INT64" }
        }
      },
      {
        "name": "PartitionedCall/onnx_tf_prefix_/_blocks.13/_depthwise_conv/static_padding/Constant_2",
        "op": "Const",
        "attr": {
          "value": {
            "tensor": {
              "dtype": "DT_INT64",
              "tensorShape": { "dim": [{ "size": "2" }] }
            }
          },
          "dtype": { "type": "DT_INT64" }
        }
      },
      {
        "name": "PartitionedCall/Where_28",
        "op": "Const",
        "attr": {
          "value": {
            "tensor": {
              "dtype": "DT_INT64",
              "tensorShape": { "dim": [{}, { "size": "1" }] }
            }
          },
          "dtype": { "type": "DT_INT64" }
        }
      },
      {
        "name": "PartitionedCall/Cast_56",
        "op": "Const",
        "attr": {
          "dtype": { "type": "DT_INT64" },
          "value": {
            "tensor": {
              "dtype": "DT_INT64",
              "tensorShape": { "dim": [{ "size": "1" }] }
            }
          }
        }
      },
      {
        "name": "PartitionedCall/GatherV2_28",
        "op": "Const",
        "attr": {
          "value": {
            "tensor": { "dtype": "DT_INT64", "tensorShape": { "dim": [{}] } }
          },
          "dtype": { "type": "DT_INT64" }
        }
      },
      {
        "name": "PartitionedCall/zeros_56",
        "op": "Const",
        "attr": {
          "dtype": { "type": "DT_INT64" },
          "value": { "tensor": { "dtype": "DT_INT64", "tensorShape": {} } }
        }
      },
      {
        "name": "PartitionedCall/SelectV2_57",
        "op": "Const",
        "attr": {
          "value": {
            "tensor": {
              "dtype": "DT_INT64",
              "tensorShape": { "dim": [{ "size": "1" }] }
            }
          },
          "dtype": { "type": "DT_INT64" }
        }
      },
      {
        "name": "PartitionedCall/zeros_57",
        "op": "Const",
        "attr": {
          "dtype": { "type": "DT_INT64" },
          "value": { "tensor": { "dtype": "DT_INT64", "tensorShape": {} } }
        }
      },
      {
        "name": "PartitionedCall/Const_86",
        "op": "Const",
        "attr": {
          "dtype": { "type": "DT_INT64" },
          "value": { "tensor": { "dtype": "DT_INT64", "tensorShape": {} } }
        }
      },
      {
        "name": "PartitionedCall/Shape_138",
        "op": "Const",
        "attr": {
          "dtype": { "type": "DT_INT64" },
          "value": {
            "tensor": {
              "dtype": "DT_INT64",
              "tensorShape": { "dim": [{ "size": "2" }] }
            }
          }
        }
      },
      {
        "name": "PartitionedCall/SelectV2_58",
        "op": "Const",
        "attr": {
          "value": {
            "tensor": {
              "dtype": "DT_INT64",
              "tensorShape": { "dim": [{ "size": "1" }] }
            }
          },
          "dtype": { "type": "DT_INT64" }
        }
      },
      {
        "name": "PartitionedCall/Const_85",
        "op": "Const",
        "attr": {
          "dtype": { "type": "DT_INT64" },
          "value": { "tensor": { "dtype": "DT_INT64", "tensorShape": {} } }
        }
      },
      {
        "name": "PartitionedCall/ExpandDims_14",
        "op": "Const",
        "attr": {
          "dtype": { "type": "DT_INT64" },
          "value": {
            "tensor": {
              "dtype": "DT_INT64",
              "tensorShape": { "dim": [{ "size": "1" }, { "size": "1" }] }
            }
          }
        }
      },
      {
        "name": "PartitionedCall/Cast_58",
        "op": "Const",
        "attr": {
          "dtype": { "type": "DT_INT64" },
          "value": {
            "tensor": {
              "dtype": "DT_INT64",
              "tensorShape": { "dim": [{ "size": "1" }] }
            }
          }
        }
      },
      {
        "name": "PartitionedCall/onnx_tf_prefix_/_blocks.13/_depthwise_conv/static_padding/Constant_6",
        "op": "Const",
        "attr": {
          "dtype": { "type": "DT_INT64" },
          "value": {
            "tensor": {
              "dtype": "DT_INT64",
              "tensorShape": { "dim": [{ "size": "1" }] }
            }
          }
        }
      },
      {
        "name": "PartitionedCall/Const_87",
        "op": "Const",
        "attr": {
          "value": { "tensor": { "dtype": "DT_INT64", "tensorShape": {} } },
          "dtype": { "type": "DT_INT64" }
        }
      },
      {
        "name": "PartitionedCall/onnx_tf_prefix_/_blocks.13/_depthwise_conv/static_padding/Transpose/perm",
        "op": "Const",
        "attr": {
          "value": {
            "tensor": {
              "dtype": "DT_INT32",
              "tensorShape": { "dim": [{ "size": "2" }] }
            }
          },
          "dtype": { "type": "DT_INT32" }
        }
      },
      {
        "name": "PartitionedCall/onnx_tf_prefix_/_blocks.13/_depthwise_conv/static_padding/Constant_7",
        "op": "Const",
        "attr": {
          "dtype": { "type": "DT_INT64" },
          "value": {
            "tensor": {
              "dtype": "DT_INT64",
              "tensorShape": { "dim": [{ "size": "1" }] }
            }
          }
        }
      },
      {
        "name": "PartitionedCall/Where_29",
        "op": "Const",
        "attr": {
          "value": {
            "tensor": {
              "dtype": "DT_INT64",
              "tensorShape": { "dim": [{}, { "size": "1" }] }
            }
          },
          "dtype": { "type": "DT_INT64" }
        }
      },
      {
        "name": "PartitionedCall/Cast_59",
        "op": "Const",
        "attr": {
          "value": {
            "tensor": {
              "dtype": "DT_INT64",
              "tensorShape": { "dim": [{ "size": "1" }] }
            }
          },
          "dtype": { "type": "DT_INT64" }
        }
      },
      {
        "name": "PartitionedCall/GatherV2_29",
        "op": "Const",
        "attr": {
          "value": {
            "tensor": { "dtype": "DT_INT64", "tensorShape": { "dim": [{}] } }
          },
          "dtype": { "type": "DT_INT64" }
        }
      },
      {
        "name": "PartitionedCall/zeros_58",
        "op": "Const",
        "attr": {
          "value": { "tensor": { "dtype": "DT_INT64", "tensorShape": {} } },
          "dtype": { "type": "DT_INT64" }
        }
      },
      {
        "name": "PartitionedCall/zeros_59",
        "op": "Const",
        "attr": {
          "dtype": { "type": "DT_INT64" },
          "value": {
            "tensor": {
              "dtype": "DT_INT64",
              "tensorShape": { "dim": [{ "size": "1" }] }
            }
          }
        }
      },
      {
        "name": "PartitionedCall/Const_89",
        "op": "Const",
        "attr": {
          "dtype": { "type": "DT_INT32" },
          "value": {
            "tensor": {
              "dtype": "DT_INT32",
              "tensorShape": { "dim": [{ "size": "1" }] }
            }
          }
        }
      },
      {
        "name": "PartitionedCall/transpose_199/perm",
        "op": "Const",
        "attr": {
          "value": {
            "tensor": {
              "dtype": "DT_INT32",
              "tensorShape": { "dim": [{ "size": "4" }] }
            }
          },
          "dtype": { "type": "DT_INT32" }
        }
      },
      {
        "name": "PartitionedCall/Reshape_28",
        "op": "Const",
        "attr": {
          "value": {
            "tensor": {
              "dtype": "DT_FLOAT",
              "tensorShape": {
                "dim": [
                  { "size": "5" },
                  { "size": "5" },
                  { "size": "1152" },
                  { "size": "1" }
                ]
              }
            }
          },
          "dtype": { "type": "DT_FLOAT" }
        }
      },
      {
        "name": "unknown_132",
        "op": "Const",
        "attr": {
          "dtype": { "type": "DT_FLOAT" },
          "value": {
            "tensor": {
              "dtype": "DT_FLOAT",
              "tensorShape": { "dim": [{ "size": "1152" }] }
            }
          }
        }
      },
      {
        "name": "PartitionedCall/transpose_200/perm",
        "op": "Const",
        "attr": {
          "value": {
            "tensor": {
              "dtype": "DT_INT32",
              "tensorShape": { "dim": [{ "size": "4" }] }
            }
          },
          "dtype": { "type": "DT_INT32" }
        }
      },
      {
        "name": "PartitionedCall/transpose_208/perm",
        "op": "Const",
        "attr": {
          "value": {
            "tensor": {
              "dtype": "DT_INT32",
              "tensorShape": { "dim": [{ "size": "4" }] }
            }
          },
          "dtype": { "type": "DT_INT32" }
        }
      },
      {
        "name": "PartitionedCall/split_69",
        "op": "Const",
        "attr": {
          "dtype": { "type": "DT_FLOAT" },
          "value": {
            "tensor": {
              "dtype": "DT_FLOAT",
              "tensorShape": {
                "dim": [
                  { "size": "1" },
                  { "size": "1" },
                  { "size": "1152" },
                  { "size": "192" }
                ]
              }
            }
          }
        }
      },
      {
        "name": "unknown_138",
        "op": "Const",
        "attr": {
          "value": {
            "tensor": {
              "dtype": "DT_FLOAT",
              "tensorShape": { "dim": [{ "size": "192" }] }
            }
          },
          "dtype": { "type": "DT_FLOAT" }
        }
      },
      {
        "name": "PartitionedCall/transpose_209/perm",
        "op": "Const",
        "attr": {
          "dtype": { "type": "DT_INT32" },
          "value": {
            "tensor": {
              "dtype": "DT_INT32",
              "tensorShape": { "dim": [{ "size": "4" }] }
            }
          }
        }
      },
      {
        "name": "ConstantFolding/PartitionedCall/split_61-folded-1",
        "op": "Const",
        "attr": {
          "value": {
            "tensor": {
              "dtype": "DT_INT32",
              "tensorShape": { "dim": [{ "size": "2" }] }
            }
          },
          "dtype": { "type": "DT_INT32" }
        }
      },
      {
        "name": "PartitionedCall/transpose_187/perm",
        "op": "Const",
        "attr": {
          "value": {
            "tensor": {
              "dtype": "DT_INT32",
              "tensorShape": { "dim": [{ "size": "4" }] }
            }
          },
          "dtype": { "type": "DT_INT32" }
        }
      },
      {
        "name": "PartitionedCall/split_62",
        "op": "Const",
        "attr": {
          "dtype": { "type": "DT_FLOAT" },
          "value": {
            "tensor": {
              "dtype": "DT_FLOAT",
              "tensorShape": {
                "dim": [
                  { "size": "1" },
                  { "size": "1" },
                  { "size": "1152" },
                  { "size": "48" }
                ]
              }
            }
          }
        }
      },
      {
        "name": "unknown_124",
        "op": "Const",
        "attr": {
          "dtype": { "type": "DT_FLOAT" },
          "value": {
            "tensor": {
              "dtype": "DT_FLOAT",
              "tensorShape": { "dim": [{ "size": "48" }] }
            }
          }
        }
      },
      {
        "name": "PartitionedCall/transpose_188/perm",
        "op": "Const",
        "attr": {
          "value": {
            "tensor": {
              "dtype": "DT_INT32",
              "tensorShape": { "dim": [{ "size": "4" }] }
            }
          },
          "dtype": { "type": "DT_INT32" }
        }
      },
      {
        "name": "PartitionedCall/transpose_190/perm",
        "op": "Const",
        "attr": {
          "value": {
            "tensor": {
              "dtype": "DT_INT32",
              "tensorShape": { "dim": [{ "size": "4" }] }
            }
          },
          "dtype": { "type": "DT_INT32" }
        }
      },
      {
        "name": "PartitionedCall/split_63",
        "op": "Const",
        "attr": {
          "value": {
            "tensor": {
              "dtype": "DT_FLOAT",
              "tensorShape": {
                "dim": [
                  { "size": "1" },
                  { "size": "1" },
                  { "size": "48" },
                  { "size": "1152" }
                ]
              }
            }
          },
          "dtype": { "type": "DT_FLOAT" }
        }
      },
      {
        "name": "unknown_126",
        "op": "Const",
        "attr": {
          "dtype": { "type": "DT_FLOAT" },
          "value": {
            "tensor": {
              "dtype": "DT_FLOAT",
              "tensorShape": { "dim": [{ "size": "1152" }] }
            }
          }
        }
      },
      {
        "name": "PartitionedCall/transpose_191/perm",
        "op": "Const",
        "attr": {
          "dtype": { "type": "DT_INT32" },
          "value": {
            "tensor": {
              "dtype": "DT_INT32",
              "tensorShape": { "dim": [{ "size": "4" }] }
            }
          }
        }
      },
      {
        "name": "PartitionedCall/onnx_tf_prefix_/_blocks.12/_depthwise_conv/static_padding/Constant_8",
        "op": "Const",
        "attr": {
          "dtype": { "type": "DT_FLOAT" },
          "value": { "tensor": { "dtype": "DT_FLOAT", "tensorShape": {} } }
        }
      },
      {
        "name": "PartitionedCall/split_60",
        "op": "Const",
        "attr": {
          "dtype": { "type": "DT_FLOAT" },
          "value": {
            "tensor": {
              "dtype": "DT_FLOAT",
              "tensorShape": {
                "dim": [
                  { "size": "1" },
                  { "size": "1" },
                  { "size": "192" },
                  { "size": "1152" }
                ]
              }
            }
          }
        }
      },
      {
        "name": "unknown_120",
        "op": "Const",
        "attr": {
          "dtype": { "type": "DT_FLOAT" },
          "value": {
            "tensor": {
              "dtype": "DT_FLOAT",
              "tensorShape": { "dim": [{ "size": "1152" }] }
            }
          }
        }
      },
      {
        "name": "PartitionedCall/transpose_182/perm",
        "op": "Const",
        "attr": {
          "dtype": { "type": "DT_INT32" },
          "value": {
            "tensor": {
              "dtype": "DT_INT32",
              "tensorShape": { "dim": [{ "size": "4" }] }
            }
          }
        }
      },
      {
        "name": "PartitionedCall/onnx_tf_prefix_/_blocks.12/_depthwise_conv/static_padding/Concat",
        "op": "Const",
        "attr": {
          "dtype": { "type": "DT_INT64" },
          "value": {
            "tensor": {
              "dtype": "DT_INT64",
              "tensorShape": { "dim": [{ "size": "8" }] }
            }
          }
        }
      },
      {
        "name": "PartitionedCall/onnx_tf_prefix_/_blocks.12/_depthwise_conv/static_padding/Constant_2",
        "op": "Const",
        "attr": {
          "dtype": { "type": "DT_INT64" },
          "value": {
            "tensor": {
              "dtype": "DT_INT64",
              "tensorShape": { "dim": [{ "size": "2" }] }
            }
          }
        }
      },
      {
        "name": "PartitionedCall/Where_26",
        "op": "Const",
        "attr": {
          "dtype": { "type": "DT_INT64" },
          "value": {
            "tensor": {
              "dtype": "DT_INT64",
              "tensorShape": { "dim": [{}, { "size": "1" }] }
            }
          }
        }
      },
      {
        "name": "PartitionedCall/Cast_52",
        "op": "Const",
        "attr": {
          "value": {
            "tensor": {
              "dtype": "DT_INT64",
              "tensorShape": { "dim": [{ "size": "1" }] }
            }
          },
          "dtype": { "type": "DT_INT64" }
        }
      },
      {
        "name": "PartitionedCall/GatherV2_26",
        "op": "Const",
        "attr": {
          "value": {
            "tensor": { "dtype": "DT_INT64", "tensorShape": { "dim": [{}] } }
          },
          "dtype": { "type": "DT_INT64" }
        }
      },
      {
        "name": "PartitionedCall/zeros_52",
        "op": "Const",
        "attr": {
          "value": { "tensor": { "dtype": "DT_INT64", "tensorShape": {} } },
          "dtype": { "type": "DT_INT64" }
        }
      },
      {
        "name": "PartitionedCall/SelectV2_53",
        "op": "Const",
        "attr": {
          "value": {
            "tensor": {
              "dtype": "DT_INT64",
              "tensorShape": { "dim": [{ "size": "1" }] }
            }
          },
          "dtype": { "type": "DT_INT64" }
        }
      },
      {
        "name": "PartitionedCall/zeros_53",
        "op": "Const",
        "attr": {
          "dtype": { "type": "DT_INT64" },
          "value": { "tensor": { "dtype": "DT_INT64", "tensorShape": {} } }
        }
      },
      {
        "name": "PartitionedCall/Const_80",
        "op": "Const",
        "attr": {
          "dtype": { "type": "DT_INT64" },
          "value": { "tensor": { "dtype": "DT_INT64", "tensorShape": {} } }
        }
      },
      {
        "name": "PartitionedCall/Shape_128",
        "op": "Const",
        "attr": {
          "value": {
            "tensor": {
              "dtype": "DT_INT64",
              "tensorShape": { "dim": [{ "size": "2" }] }
            }
          },
          "dtype": { "type": "DT_INT64" }
        }
      },
      {
        "name": "PartitionedCall/SelectV2_54",
        "op": "Const",
        "attr": {
          "value": {
            "tensor": {
              "dtype": "DT_INT64",
              "tensorShape": { "dim": [{ "size": "1" }] }
            }
          },
          "dtype": { "type": "DT_INT64" }
        }
      },
      {
        "name": "PartitionedCall/Const_79",
        "op": "Const",
        "attr": {
          "dtype": { "type": "DT_INT64" },
          "value": { "tensor": { "dtype": "DT_INT64", "tensorShape": {} } }
        }
      },
      {
        "name": "PartitionedCall/ExpandDims_13",
        "op": "Const",
        "attr": {
          "value": {
            "tensor": {
              "dtype": "DT_INT64",
              "tensorShape": { "dim": [{ "size": "1" }, { "size": "1" }] }
            }
          },
          "dtype": { "type": "DT_INT64" }
        }
      },
      {
        "name": "PartitionedCall/Cast_54",
        "op": "Const",
        "attr": {
          "dtype": { "type": "DT_INT64" },
          "value": {
            "tensor": {
              "dtype": "DT_INT64",
              "tensorShape": { "dim": [{ "size": "1" }] }
            }
          }
        }
      },
      {
        "name": "PartitionedCall/onnx_tf_prefix_/_blocks.12/_depthwise_conv/static_padding/Constant_6",
        "op": "Const",
        "attr": {
          "dtype": { "type": "DT_INT64" },
          "value": {
            "tensor": {
              "dtype": "DT_INT64",
              "tensorShape": { "dim": [{ "size": "1" }] }
            }
          }
        }
      },
      {
        "name": "PartitionedCall/Const_81",
        "op": "Const",
        "attr": {
          "dtype": { "type": "DT_INT64" },
          "value": { "tensor": { "dtype": "DT_INT64", "tensorShape": {} } }
        }
      },
      {
        "name": "PartitionedCall/onnx_tf_prefix_/_blocks.12/_depthwise_conv/static_padding/Transpose/perm",
        "op": "Const",
        "attr": {
          "value": {
            "tensor": {
              "dtype": "DT_INT32",
              "tensorShape": { "dim": [{ "size": "2" }] }
            }
          },
          "dtype": { "type": "DT_INT32" }
        }
      },
      {
        "name": "PartitionedCall/onnx_tf_prefix_/_blocks.12/_depthwise_conv/static_padding/Constant_7",
        "op": "Const",
        "attr": {
          "value": {
            "tensor": {
              "dtype": "DT_INT64",
              "tensorShape": { "dim": [{ "size": "1" }] }
            }
          },
          "dtype": { "type": "DT_INT64" }
        }
      },
      {
        "name": "PartitionedCall/Where_27",
        "op": "Const",
        "attr": {
          "value": {
            "tensor": {
              "dtype": "DT_INT64",
              "tensorShape": { "dim": [{}, { "size": "1" }] }
            }
          },
          "dtype": { "type": "DT_INT64" }
        }
      },
      {
        "name": "PartitionedCall/Cast_55",
        "op": "Const",
        "attr": {
          "value": {
            "tensor": {
              "dtype": "DT_INT64",
              "tensorShape": { "dim": [{ "size": "1" }] }
            }
          },
          "dtype": { "type": "DT_INT64" }
        }
      },
      {
        "name": "PartitionedCall/GatherV2_27",
        "op": "Const",
        "attr": {
          "dtype": { "type": "DT_INT64" },
          "value": {
            "tensor": { "dtype": "DT_INT64", "tensorShape": { "dim": [{}] } }
          }
        }
      },
      {
        "name": "PartitionedCall/zeros_54",
        "op": "Const",
        "attr": {
          "dtype": { "type": "DT_INT64" },
          "value": { "tensor": { "dtype": "DT_INT64", "tensorShape": {} } }
        }
      },
      {
        "name": "PartitionedCall/zeros_55",
        "op": "Const",
        "attr": {
          "dtype": { "type": "DT_INT64" },
          "value": {
            "tensor": {
              "dtype": "DT_INT64",
              "tensorShape": { "dim": [{ "size": "1" }] }
            }
          }
        }
      },
      {
        "name": "PartitionedCall/Const_83",
        "op": "Const",
        "attr": {
          "value": {
            "tensor": {
              "dtype": "DT_INT32",
              "tensorShape": { "dim": [{ "size": "1" }] }
            }
          },
          "dtype": { "type": "DT_INT32" }
        }
      },
      {
        "name": "PartitionedCall/transpose_184/perm",
        "op": "Const",
        "attr": {
          "value": {
            "tensor": {
              "dtype": "DT_INT32",
              "tensorShape": { "dim": [{ "size": "4" }] }
            }
          },
          "dtype": { "type": "DT_INT32" }
        }
      },
      {
        "name": "PartitionedCall/Reshape_26",
        "op": "Const",
        "attr": {
          "value": {
            "tensor": {
              "dtype": "DT_FLOAT",
              "tensorShape": {
                "dim": [
                  { "size": "5" },
                  { "size": "5" },
                  { "size": "1152" },
                  { "size": "1" }
                ]
              }
            }
          },
          "dtype": { "type": "DT_FLOAT" }
        }
      },
      {
        "name": "unknown_122",
        "op": "Const",
        "attr": {
          "value": {
            "tensor": {
              "dtype": "DT_FLOAT",
              "tensorShape": { "dim": [{ "size": "1152" }] }
            }
          },
          "dtype": { "type": "DT_FLOAT" }
        }
      },
      {
        "name": "PartitionedCall/transpose_185/perm",
        "op": "Const",
        "attr": {
          "value": {
            "tensor": {
              "dtype": "DT_INT32",
              "tensorShape": { "dim": [{ "size": "4" }] }
            }
          },
          "dtype": { "type": "DT_INT32" }
        }
      },
      {
        "name": "PartitionedCall/transpose_193/perm",
        "op": "Const",
        "attr": {
          "dtype": { "type": "DT_INT32" },
          "value": {
            "tensor": {
              "dtype": "DT_INT32",
              "tensorShape": { "dim": [{ "size": "4" }] }
            }
          }
        }
      },
      {
        "name": "PartitionedCall/split_64",
        "op": "Const",
        "attr": {
          "dtype": { "type": "DT_FLOAT" },
          "value": {
            "tensor": {
              "dtype": "DT_FLOAT",
              "tensorShape": {
                "dim": [
                  { "size": "1" },
                  { "size": "1" },
                  { "size": "1152" },
                  { "size": "192" }
                ]
              }
            }
          }
        }
      },
      {
        "name": "unknown_128",
        "op": "Const",
        "attr": {
          "dtype": { "type": "DT_FLOAT" },
          "value": {
            "tensor": {
              "dtype": "DT_FLOAT",
              "tensorShape": { "dim": [{ "size": "192" }] }
            }
          }
        }
      },
      {
        "name": "PartitionedCall/transpose_194/perm",
        "op": "Const",
        "attr": {
          "dtype": { "type": "DT_INT32" },
          "value": {
            "tensor": {
              "dtype": "DT_INT32",
              "tensorShape": { "dim": [{ "size": "4" }] }
            }
          }
        }
      },
      {
        "name": "ConstantFolding/PartitionedCall/split_56-folded-1",
        "op": "Const",
        "attr": {
          "value": {
            "tensor": {
              "dtype": "DT_INT32",
              "tensorShape": { "dim": [{ "size": "2" }] }
            }
          },
          "dtype": { "type": "DT_INT32" }
        }
      },
      {
        "name": "PartitionedCall/transpose_172/perm",
        "op": "Const",
        "attr": {
          "value": {
            "tensor": {
              "dtype": "DT_INT32",
              "tensorShape": { "dim": [{ "size": "4" }] }
            }
          },
          "dtype": { "type": "DT_INT32" }
        }
      },
      {
        "name": "PartitionedCall/split_57",
        "op": "Const",
        "attr": {
          "dtype": { "type": "DT_FLOAT" },
          "value": {
            "tensor": {
              "dtype": "DT_FLOAT",
              "tensorShape": {
                "dim": [
                  { "size": "1" },
                  { "size": "1" },
                  { "size": "672" },
                  { "size": "28" }
                ]
              }
            }
          }
        }
      },
      {
        "name": "unknown_114",
        "op": "Const",
        "attr": {
          "value": {
            "tensor": {
              "dtype": "DT_FLOAT",
              "tensorShape": { "dim": [{ "size": "28" }] }
            }
          },
          "dtype": { "type": "DT_FLOAT" }
        }
      },
      {
        "name": "PartitionedCall/transpose_173/perm",
        "op": "Const",
        "attr": {
          "value": {
            "tensor": {
              "dtype": "DT_INT32",
              "tensorShape": { "dim": [{ "size": "4" }] }
            }
          },
          "dtype": { "type": "DT_INT32" }
        }
      },
      {
        "name": "PartitionedCall/transpose_175/perm",
        "op": "Const",
        "attr": {
          "value": {
            "tensor": {
              "dtype": "DT_INT32",
              "tensorShape": { "dim": [{ "size": "4" }] }
            }
          },
          "dtype": { "type": "DT_INT32" }
        }
      },
      {
        "name": "PartitionedCall/split_58",
        "op": "Const",
        "attr": {
          "dtype": { "type": "DT_FLOAT" },
          "value": {
            "tensor": {
              "dtype": "DT_FLOAT",
              "tensorShape": {
                "dim": [
                  { "size": "1" },
                  { "size": "1" },
                  { "size": "28" },
                  { "size": "672" }
                ]
              }
            }
          }
        }
      },
      {
        "name": "unknown_116",
        "op": "Const",
        "attr": {
          "value": {
            "tensor": {
              "dtype": "DT_FLOAT",
              "tensorShape": { "dim": [{ "size": "672" }] }
            }
          },
          "dtype": { "type": "DT_FLOAT" }
        }
      },
      {
        "name": "PartitionedCall/transpose_176/perm",
        "op": "Const",
        "attr": {
          "dtype": { "type": "DT_INT32" },
          "value": {
            "tensor": {
              "dtype": "DT_INT32",
              "tensorShape": { "dim": [{ "size": "4" }] }
            }
          }
        }
      },
      {
        "name": "PartitionedCall/onnx_tf_prefix_/_blocks.11/_depthwise_conv/static_padding/Constant_8",
        "op": "Const",
        "attr": {
          "value": { "tensor": { "dtype": "DT_FLOAT", "tensorShape": {} } },
          "dtype": { "type": "DT_FLOAT" }
        }
      },
      {
        "name": "ConstantFolding/PartitionedCall/split_51-folded-1",
        "op": "Const",
        "attr": {
          "dtype": { "type": "DT_INT32" },
          "value": {
            "tensor": {
              "dtype": "DT_INT32",
              "tensorShape": { "dim": [{ "size": "2" }] }
            }
          }
        }
      },
      {
        "name": "PartitionedCall/transpose_157/perm",
        "op": "Const",
        "attr": {
          "value": {
            "tensor": {
              "dtype": "DT_INT32",
              "tensorShape": { "dim": [{ "size": "4" }] }
            }
          },
          "dtype": { "type": "DT_INT32" }
        }
      },
      {
        "name": "PartitionedCall/split_52",
        "op": "Const",
        "attr": {
          "dtype": { "type": "DT_FLOAT" },
          "value": {
            "tensor": {
              "dtype": "DT_FLOAT",
              "tensorShape": {
                "dim": [
                  { "size": "1" },
                  { "size": "1" },
                  { "size": "672" },
                  { "size": "28" }
                ]
              }
            }
          }
        }
      },
      {
        "name": "unknown_104",
        "op": "Const",
        "attr": {
          "dtype": { "type": "DT_FLOAT" },
          "value": {
            "tensor": {
              "dtype": "DT_FLOAT",
              "tensorShape": { "dim": [{ "size": "28" }] }
            }
          }
        }
      },
      {
        "name": "PartitionedCall/transpose_158/perm",
        "op": "Const",
        "attr": {
          "value": {
            "tensor": {
              "dtype": "DT_INT32",
              "tensorShape": { "dim": [{ "size": "4" }] }
            }
          },
          "dtype": { "type": "DT_INT32" }
        }
      },
      {
        "name": "PartitionedCall/transpose_160/perm",
        "op": "Const",
        "attr": {
          "value": {
            "tensor": {
              "dtype": "DT_INT32",
              "tensorShape": { "dim": [{ "size": "4" }] }
            }
          },
          "dtype": { "type": "DT_INT32" }
        }
      },
      {
        "name": "PartitionedCall/split_53",
        "op": "Const",
        "attr": {
          "value": {
            "tensor": {
              "dtype": "DT_FLOAT",
              "tensorShape": {
                "dim": [
                  { "size": "1" },
                  { "size": "1" },
                  { "size": "28" },
                  { "size": "672" }
                ]
              }
            }
          },
          "dtype": { "type": "DT_FLOAT" }
        }
      },
      {
        "name": "unknown_106",
        "op": "Const",
        "attr": {
          "value": {
            "tensor": {
              "dtype": "DT_FLOAT",
              "tensorShape": { "dim": [{ "size": "672" }] }
            }
          },
          "dtype": { "type": "DT_FLOAT" }
        }
      },
      {
        "name": "PartitionedCall/transpose_161/perm",
        "op": "Const",
        "attr": {
          "value": {
            "tensor": {
              "dtype": "DT_INT32",
              "tensorShape": { "dim": [{ "size": "4" }] }
            }
          },
          "dtype": { "type": "DT_INT32" }
        }
      },
      {
        "name": "PartitionedCall/onnx_tf_prefix_/_blocks.10/_depthwise_conv/static_padding/Constant_8",
        "op": "Const",
        "attr": {
          "dtype": { "type": "DT_FLOAT" },
          "value": { "tensor": { "dtype": "DT_FLOAT", "tensorShape": {} } }
        }
      },
      {
        "name": "PartitionedCall/transpose_151/perm",
        "op": "Const",
        "attr": {
          "value": {
            "tensor": {
              "dtype": "DT_INT32",
              "tensorShape": { "dim": [{ "size": "4" }] }
            }
          },
          "dtype": { "type": "DT_INT32" }
        }
      },
      {
        "name": "PartitionedCall/split_50",
        "op": "Const",
        "attr": {
          "dtype": { "type": "DT_FLOAT" },
          "value": {
            "tensor": {
              "dtype": "DT_FLOAT",
              "tensorShape": {
                "dim": [
                  { "size": "1" },
                  { "size": "1" },
                  { "size": "112" },
                  { "size": "672" }
                ]
              }
            }
          }
        }
      },
      {
        "name": "unknown_100",
        "op": "Const",
        "attr": {
          "value": {
            "tensor": {
              "dtype": "DT_FLOAT",
              "tensorShape": { "dim": [{ "size": "672" }] }
            }
          },
          "dtype": { "type": "DT_FLOAT" }
        }
      },
      {
        "name": "PartitionedCall/transpose_152/perm",
        "op": "Const",
        "attr": {
          "dtype": { "type": "DT_INT32" },
          "value": {
            "tensor": {
              "dtype": "DT_INT32",
              "tensorShape": { "dim": [{ "size": "4" }] }
            }
          }
        }
      },
      {
        "name": "PartitionedCall/onnx_tf_prefix_/_blocks.10/_depthwise_conv/static_padding/Concat",
        "op": "Const",
        "attr": {
          "dtype": { "type": "DT_INT64" },
          "value": {
            "tensor": {
              "dtype": "DT_INT64",
              "tensorShape": { "dim": [{ "size": "8" }] }
            }
          }
        }
      },
      {
        "name": "PartitionedCall/onnx_tf_prefix_/_blocks.10/_depthwise_conv/static_padding/Constant_2",
        "op": "Const",
        "attr": {
          "value": {
            "tensor": {
              "dtype": "DT_INT64",
              "tensorShape": { "dim": [{ "size": "2" }] }
            }
          },
          "dtype": { "type": "DT_INT64" }
        }
      },
      {
        "name": "PartitionedCall/Where_22",
        "op": "Const",
        "attr": {
          "value": {
            "tensor": {
              "dtype": "DT_INT64",
              "tensorShape": { "dim": [{}, { "size": "1" }] }
            }
          },
          "dtype": { "type": "DT_INT64" }
        }
      },
      {
        "name": "PartitionedCall/Cast_44",
        "op": "Const",
        "attr": {
          "dtype": { "type": "DT_INT64" },
          "value": {
            "tensor": {
              "dtype": "DT_INT64",
              "tensorShape": { "dim": [{ "size": "1" }] }
            }
          }
        }
      },
      {
        "name": "PartitionedCall/GatherV2_22",
        "op": "Const",
        "attr": {
          "value": {
            "tensor": { "dtype": "DT_INT64", "tensorShape": { "dim": [{}] } }
          },
          "dtype": { "type": "DT_INT64" }
        }
      },
      {
        "name": "PartitionedCall/zeros_44",
        "op": "Const",
        "attr": {
          "value": { "tensor": { "dtype": "DT_INT64", "tensorShape": {} } },
          "dtype": { "type": "DT_INT64" }
        }
      },
      {
        "name": "PartitionedCall/SelectV2_45",
        "op": "Const",
        "attr": {
          "value": {
            "tensor": {
              "dtype": "DT_INT64",
              "tensorShape": { "dim": [{ "size": "1" }] }
            }
          },
          "dtype": { "type": "DT_INT64" }
        }
      },
      {
        "name": "PartitionedCall/zeros_45",
        "op": "Const",
        "attr": {
          "value": { "tensor": { "dtype": "DT_INT64", "tensorShape": {} } },
          "dtype": { "type": "DT_INT64" }
        }
      },
      {
        "name": "PartitionedCall/Const_68",
        "op": "Const",
        "attr": {
          "dtype": { "type": "DT_INT64" },
          "value": { "tensor": { "dtype": "DT_INT64", "tensorShape": {} } }
        }
      },
      {
        "name": "PartitionedCall/Shape_108",
        "op": "Const",
        "attr": {
          "value": {
            "tensor": {
              "dtype": "DT_INT64",
              "tensorShape": { "dim": [{ "size": "2" }] }
            }
          },
          "dtype": { "type": "DT_INT64" }
        }
      },
      {
        "name": "PartitionedCall/SelectV2_46",
        "op": "Const",
        "attr": {
          "dtype": { "type": "DT_INT64" },
          "value": {
            "tensor": {
              "dtype": "DT_INT64",
              "tensorShape": { "dim": [{ "size": "1" }] }
            }
          }
        }
      },
      {
        "name": "PartitionedCall/Const_67",
        "op": "Const",
        "attr": {
          "dtype": { "type": "DT_INT64" },
          "value": { "tensor": { "dtype": "DT_INT64", "tensorShape": {} } }
        }
      },
      {
        "name": "PartitionedCall/ExpandDims_11",
        "op": "Const",
        "attr": {
          "dtype": { "type": "DT_INT64" },
          "value": {
            "tensor": {
              "dtype": "DT_INT64",
              "tensorShape": { "dim": [{ "size": "1" }, { "size": "1" }] }
            }
          }
        }
      },
      {
        "name": "PartitionedCall/Cast_46",
        "op": "Const",
        "attr": {
          "dtype": { "type": "DT_INT64" },
          "value": {
            "tensor": {
              "dtype": "DT_INT64",
              "tensorShape": { "dim": [{ "size": "1" }] }
            }
          }
        }
      },
      {
        "name": "PartitionedCall/onnx_tf_prefix_/_blocks.10/_depthwise_conv/static_padding/Constant_6",
        "op": "Const",
        "attr": {
          "dtype": { "type": "DT_INT64" },
          "value": {
            "tensor": {
              "dtype": "DT_INT64",
              "tensorShape": { "dim": [{ "size": "1" }] }
            }
          }
        }
      },
      {
        "name": "PartitionedCall/Const_69",
        "op": "Const",
        "attr": {
          "dtype": { "type": "DT_INT64" },
          "value": { "tensor": { "dtype": "DT_INT64", "tensorShape": {} } }
        }
      },
      {
        "name": "PartitionedCall/onnx_tf_prefix_/_blocks.10/_depthwise_conv/static_padding/Transpose/perm",
        "op": "Const",
        "attr": {
          "dtype": { "type": "DT_INT32" },
          "value": {
            "tensor": {
              "dtype": "DT_INT32",
              "tensorShape": { "dim": [{ "size": "2" }] }
            }
          }
        }
      },
      {
        "name": "PartitionedCall/onnx_tf_prefix_/_blocks.10/_depthwise_conv/static_padding/Constant_7",
        "op": "Const",
        "attr": {
          "value": {
            "tensor": {
              "dtype": "DT_INT64",
              "tensorShape": { "dim": [{ "size": "1" }] }
            }
          },
          "dtype": { "type": "DT_INT64" }
        }
      },
      {
        "name": "PartitionedCall/Where_23",
        "op": "Const",
        "attr": {
          "dtype": { "type": "DT_INT64" },
          "value": {
            "tensor": {
              "dtype": "DT_INT64",
              "tensorShape": { "dim": [{}, { "size": "1" }] }
            }
          }
        }
      },
      {
        "name": "PartitionedCall/Cast_47",
        "op": "Const",
        "attr": {
          "value": {
            "tensor": {
              "dtype": "DT_INT64",
              "tensorShape": { "dim": [{ "size": "1" }] }
            }
          },
          "dtype": { "type": "DT_INT64" }
        }
      },
      {
        "name": "PartitionedCall/GatherV2_23",
        "op": "Const",
        "attr": {
          "dtype": { "type": "DT_INT64" },
          "value": {
            "tensor": { "dtype": "DT_INT64", "tensorShape": { "dim": [{}] } }
          }
        }
      },
      {
        "name": "PartitionedCall/zeros_46",
        "op": "Const",
        "attr": {
          "value": { "tensor": { "dtype": "DT_INT64", "tensorShape": {} } },
          "dtype": { "type": "DT_INT64" }
        }
      },
      {
        "name": "PartitionedCall/zeros_47",
        "op": "Const",
        "attr": {
          "dtype": { "type": "DT_INT64" },
          "value": {
            "tensor": {
              "dtype": "DT_INT64",
              "tensorShape": { "dim": [{ "size": "1" }] }
            }
          }
        }
      },
      {
        "name": "PartitionedCall/Const_71",
        "op": "Const",
        "attr": {
          "value": {
            "tensor": {
              "dtype": "DT_INT32",
              "tensorShape": { "dim": [{ "size": "1" }] }
            }
          },
          "dtype": { "type": "DT_INT32" }
        }
      },
      {
        "name": "PartitionedCall/transpose_154/perm",
        "op": "Const",
        "attr": {
          "dtype": { "type": "DT_INT32" },
          "value": {
            "tensor": {
              "dtype": "DT_INT32",
              "tensorShape": { "dim": [{ "size": "4" }] }
            }
          }
        }
      },
      {
        "name": "PartitionedCall/Reshape_22",
        "op": "Const",
        "attr": {
          "value": {
            "tensor": {
              "dtype": "DT_FLOAT",
              "tensorShape": {
                "dim": [
                  { "size": "5" },
                  { "size": "5" },
                  { "size": "672" },
                  { "size": "1" }
                ]
              }
            }
          },
          "dtype": { "type": "DT_FLOAT" }
        }
      },
      {
        "name": "unknown_102",
        "op": "Const",
        "attr": {
          "value": {
            "tensor": {
              "dtype": "DT_FLOAT",
              "tensorShape": { "dim": [{ "size": "672" }] }
            }
          },
          "dtype": { "type": "DT_FLOAT" }
        }
      },
      {
        "name": "PartitionedCall/transpose_155/perm",
        "op": "Const",
        "attr": {
          "value": {
            "tensor": {
              "dtype": "DT_INT32",
              "tensorShape": { "dim": [{ "size": "4" }] }
            }
          },
          "dtype": { "type": "DT_INT32" }
        }
      },
      {
        "name": "PartitionedCall/transpose_163/perm",
        "op": "Const",
        "attr": {
          "dtype": { "type": "DT_INT32" },
          "value": {
            "tensor": {
              "dtype": "DT_INT32",
              "tensorShape": { "dim": [{ "size": "4" }] }
            }
          }
        }
      },
      {
        "name": "PartitionedCall/split_54",
        "op": "Const",
        "attr": {
          "value": {
            "tensor": {
              "dtype": "DT_FLOAT",
              "tensorShape": {
                "dim": [
                  { "size": "1" },
                  { "size": "1" },
                  { "size": "672" },
                  { "size": "112" }
                ]
              }
            }
          },
          "dtype": { "type": "DT_FLOAT" }
        }
      },
      {
        "name": "unknown_108",
        "op": "Const",
        "attr": {
          "value": {
            "tensor": {
              "dtype": "DT_FLOAT",
              "tensorShape": { "dim": [{ "size": "112" }] }
            }
          },
          "dtype": { "type": "DT_FLOAT" }
        }
      },
      {
        "name": "PartitionedCall/transpose_164/perm",
        "op": "Const",
        "attr": {
          "value": {
            "tensor": {
              "dtype": "DT_INT32",
              "tensorShape": { "dim": [{ "size": "4" }] }
            }
          },
          "dtype": { "type": "DT_INT32" }
        }
      },
      {
        "name": "ConstantFolding/PartitionedCall/split_46-folded-1",
        "op": "Const",
        "attr": {
          "value": {
            "tensor": {
              "dtype": "DT_INT32",
              "tensorShape": { "dim": [{ "size": "2" }] }
            }
          },
          "dtype": { "type": "DT_INT32" }
        }
      },
      {
        "name": "PartitionedCall/transpose_142/perm",
        "op": "Const",
        "attr": {
          "dtype": { "type": "DT_INT32" },
          "value": {
            "tensor": {
              "dtype": "DT_INT32",
              "tensorShape": { "dim": [{ "size": "4" }] }
            }
          }
        }
      },
      {
        "name": "PartitionedCall/split_47",
        "op": "Const",
        "attr": {
          "value": {
            "tensor": {
              "dtype": "DT_FLOAT",
              "tensorShape": {
                "dim": [
                  { "size": "1" },
                  { "size": "1" },
                  { "size": "672" },
                  { "size": "28" }
                ]
              }
            }
          },
          "dtype": { "type": "DT_FLOAT" }
        }
      },
      {
        "name": "unknown_94",
        "op": "Const",
        "attr": {
          "value": {
            "tensor": {
              "dtype": "DT_FLOAT",
              "tensorShape": { "dim": [{ "size": "28" }] }
            }
          },
          "dtype": { "type": "DT_FLOAT" }
        }
      },
      {
        "name": "PartitionedCall/transpose_143/perm",
        "op": "Const",
        "attr": {
          "dtype": { "type": "DT_INT32" },
          "value": {
            "tensor": {
              "dtype": "DT_INT32",
              "tensorShape": { "dim": [{ "size": "4" }] }
            }
          }
        }
      },
      {
        "name": "PartitionedCall/transpose_145/perm",
        "op": "Const",
        "attr": {
          "value": {
            "tensor": {
              "dtype": "DT_INT32",
              "tensorShape": { "dim": [{ "size": "4" }] }
            }
          },
          "dtype": { "type": "DT_INT32" }
        }
      },
      {
        "name": "PartitionedCall/split_48",
        "op": "Const",
        "attr": {
          "dtype": { "type": "DT_FLOAT" },
          "value": {
            "tensor": {
              "dtype": "DT_FLOAT",
              "tensorShape": {
                "dim": [
                  { "size": "1" },
                  { "size": "1" },
                  { "size": "28" },
                  { "size": "672" }
                ]
              }
            }
          }
        }
      },
      {
        "name": "unknown_96",
        "op": "Const",
        "attr": {
          "dtype": { "type": "DT_FLOAT" },
          "value": {
            "tensor": {
              "dtype": "DT_FLOAT",
              "tensorShape": { "dim": [{ "size": "672" }] }
            }
          }
        }
      },
      {
        "name": "PartitionedCall/transpose_146/perm",
        "op": "Const",
        "attr": {
          "dtype": { "type": "DT_INT32" },
          "value": {
            "tensor": {
              "dtype": "DT_INT32",
              "tensorShape": { "dim": [{ "size": "4" }] }
            }
          }
        }
      },
      {
        "name": "PartitionedCall/onnx_tf_prefix_/_blocks.9/_depthwise_conv/static_padding/Constant_8",
        "op": "Const",
        "attr": {
          "value": { "tensor": { "dtype": "DT_FLOAT", "tensorShape": {} } },
          "dtype": { "type": "DT_FLOAT" }
        }
      },
      {
        "name": "PartitionedCall/split_45",
        "op": "Const",
        "attr": {
          "value": {
            "tensor": {
              "dtype": "DT_FLOAT",
              "tensorShape": {
                "dim": [
                  { "size": "1" },
                  { "size": "1" },
                  { "size": "112" },
                  { "size": "672" }
                ]
              }
            }
          },
          "dtype": { "type": "DT_FLOAT" }
        }
      },
      {
        "name": "unknown_90",
        "op": "Const",
        "attr": {
          "dtype": { "type": "DT_FLOAT" },
          "value": {
            "tensor": {
              "dtype": "DT_FLOAT",
              "tensorShape": { "dim": [{ "size": "672" }] }
            }
          }
        }
      },
      {
        "name": "PartitionedCall/transpose_137/perm",
        "op": "Const",
        "attr": {
          "dtype": { "type": "DT_INT32" },
          "value": {
            "tensor": {
              "dtype": "DT_INT32",
              "tensorShape": { "dim": [{ "size": "4" }] }
            }
          }
        }
      },
      {
        "name": "PartitionedCall/onnx_tf_prefix_/_blocks.9/_depthwise_conv/static_padding/Concat",
        "op": "Const",
        "attr": {
          "dtype": { "type": "DT_INT64" },
          "value": {
            "tensor": {
              "dtype": "DT_INT64",
              "tensorShape": { "dim": [{ "size": "8" }] }
            }
          }
        }
      },
      {
        "name": "PartitionedCall/onnx_tf_prefix_/_blocks.9/_depthwise_conv/static_padding/Constant_2",
        "op": "Const",
        "attr": {
          "value": {
            "tensor": {
              "dtype": "DT_INT64",
              "tensorShape": { "dim": [{ "size": "2" }] }
            }
          },
          "dtype": { "type": "DT_INT64" }
        }
      },
      {
        "name": "PartitionedCall/Where_20",
        "op": "Const",
        "attr": {
          "value": {
            "tensor": {
              "dtype": "DT_INT64",
              "tensorShape": { "dim": [{}, { "size": "1" }] }
            }
          },
          "dtype": { "type": "DT_INT64" }
        }
      },
      {
        "name": "PartitionedCall/Cast_40",
        "op": "Const",
        "attr": {
          "value": {
            "tensor": {
              "dtype": "DT_INT64",
              "tensorShape": { "dim": [{ "size": "1" }] }
            }
          },
          "dtype": { "type": "DT_INT64" }
        }
      },
      {
        "name": "PartitionedCall/GatherV2_20",
        "op": "Const",
        "attr": {
          "value": {
            "tensor": { "dtype": "DT_INT64", "tensorShape": { "dim": [{}] } }
          },
          "dtype": { "type": "DT_INT64" }
        }
      },
      {
        "name": "PartitionedCall/zeros_40",
        "op": "Const",
        "attr": {
          "dtype": { "type": "DT_INT64" },
          "value": { "tensor": { "dtype": "DT_INT64", "tensorShape": {} } }
        }
      },
      {
        "name": "PartitionedCall/SelectV2_41",
        "op": "Const",
        "attr": {
          "value": {
            "tensor": {
              "dtype": "DT_INT64",
              "tensorShape": { "dim": [{ "size": "1" }] }
            }
          },
          "dtype": { "type": "DT_INT64" }
        }
      },
      {
        "name": "PartitionedCall/zeros_41",
        "op": "Const",
        "attr": {
          "dtype": { "type": "DT_INT64" },
          "value": { "tensor": { "dtype": "DT_INT64", "tensorShape": {} } }
        }
      },
      {
        "name": "PartitionedCall/Const_62",
        "op": "Const",
        "attr": {
          "value": { "tensor": { "dtype": "DT_INT64", "tensorShape": {} } },
          "dtype": { "type": "DT_INT64" }
        }
      },
      {
        "name": "PartitionedCall/Shape_98",
        "op": "Const",
        "attr": {
          "dtype": { "type": "DT_INT64" },
          "value": {
            "tensor": {
              "dtype": "DT_INT64",
              "tensorShape": { "dim": [{ "size": "2" }] }
            }
          }
        }
      },
      {
        "name": "PartitionedCall/SelectV2_42",
        "op": "Const",
        "attr": {
          "dtype": { "type": "DT_INT64" },
          "value": {
            "tensor": {
              "dtype": "DT_INT64",
              "tensorShape": { "dim": [{ "size": "1" }] }
            }
          }
        }
      },
      {
        "name": "PartitionedCall/Const_61",
        "op": "Const",
        "attr": {
          "value": { "tensor": { "dtype": "DT_INT64", "tensorShape": {} } },
          "dtype": { "type": "DT_INT64" }
        }
      },
      {
        "name": "PartitionedCall/ExpandDims_10",
        "op": "Const",
        "attr": {
          "dtype": { "type": "DT_INT64" },
          "value": {
            "tensor": {
              "dtype": "DT_INT64",
              "tensorShape": { "dim": [{ "size": "1" }, { "size": "1" }] }
            }
          }
        }
      },
      {
        "name": "PartitionedCall/Cast_42",
        "op": "Const",
        "attr": {
          "dtype": { "type": "DT_INT64" },
          "value": {
            "tensor": {
              "dtype": "DT_INT64",
              "tensorShape": { "dim": [{ "size": "1" }] }
            }
          }
        }
      },
      {
        "name": "PartitionedCall/onnx_tf_prefix_/_blocks.9/_depthwise_conv/static_padding/Constant_6",
        "op": "Const",
        "attr": {
          "dtype": { "type": "DT_INT64" },
          "value": {
            "tensor": {
              "dtype": "DT_INT64",
              "tensorShape": { "dim": [{ "size": "1" }] }
            }
          }
        }
      },
      {
        "name": "PartitionedCall/Const_63",
        "op": "Const",
        "attr": {
          "value": { "tensor": { "dtype": "DT_INT64", "tensorShape": {} } },
          "dtype": { "type": "DT_INT64" }
        }
      },
      {
        "name": "PartitionedCall/onnx_tf_prefix_/_blocks.9/_depthwise_conv/static_padding/Transpose/perm",
        "op": "Const",
        "attr": {
          "value": {
            "tensor": {
              "dtype": "DT_INT32",
              "tensorShape": { "dim": [{ "size": "2" }] }
            }
          },
          "dtype": { "type": "DT_INT32" }
        }
      },
      {
        "name": "PartitionedCall/onnx_tf_prefix_/_blocks.9/_depthwise_conv/static_padding/Constant_7",
        "op": "Const",
        "attr": {
          "value": {
            "tensor": {
              "dtype": "DT_INT64",
              "tensorShape": { "dim": [{ "size": "1" }] }
            }
          },
          "dtype": { "type": "DT_INT64" }
        }
      },
      {
        "name": "PartitionedCall/Where_21",
        "op": "Const",
        "attr": {
          "dtype": { "type": "DT_INT64" },
          "value": {
            "tensor": {
              "dtype": "DT_INT64",
              "tensorShape": { "dim": [{}, { "size": "1" }] }
            }
          }
        }
      },
      {
        "name": "PartitionedCall/Cast_43",
        "op": "Const",
        "attr": {
          "dtype": { "type": "DT_INT64" },
          "value": {
            "tensor": {
              "dtype": "DT_INT64",
              "tensorShape": { "dim": [{ "size": "1" }] }
            }
          }
        }
      },
      {
        "name": "PartitionedCall/GatherV2_21",
        "op": "Const",
        "attr": {
          "value": {
            "tensor": { "dtype": "DT_INT64", "tensorShape": { "dim": [{}] } }
          },
          "dtype": { "type": "DT_INT64" }
        }
      },
      {
        "name": "PartitionedCall/zeros_42",
        "op": "Const",
        "attr": {
          "dtype": { "type": "DT_INT64" },
          "value": { "tensor": { "dtype": "DT_INT64", "tensorShape": {} } }
        }
      },
      {
        "name": "PartitionedCall/zeros_43",
        "op": "Const",
        "attr": {
          "value": {
            "tensor": {
              "dtype": "DT_INT64",
              "tensorShape": { "dim": [{ "size": "1" }] }
            }
          },
          "dtype": { "type": "DT_INT64" }
        }
      },
      {
        "name": "PartitionedCall/Const_65",
        "op": "Const",
        "attr": {
          "value": {
            "tensor": {
              "dtype": "DT_INT32",
              "tensorShape": { "dim": [{ "size": "1" }] }
            }
          },
          "dtype": { "type": "DT_INT32" }
        }
      },
      {
        "name": "PartitionedCall/transpose_139/perm",
        "op": "Const",
        "attr": {
          "value": {
            "tensor": {
              "dtype": "DT_INT32",
              "tensorShape": { "dim": [{ "size": "4" }] }
            }
          },
          "dtype": { "type": "DT_INT32" }
        }
      },
      {
        "name": "PartitionedCall/Reshape_20",
        "op": "Const",
        "attr": {
          "dtype": { "type": "DT_FLOAT" },
          "value": {
            "tensor": {
              "dtype": "DT_FLOAT",
              "tensorShape": {
                "dim": [
                  { "size": "5" },
                  { "size": "5" },
                  { "size": "672" },
                  { "size": "1" }
                ]
              }
            }
          }
        }
      },
      {
        "name": "unknown_92",
        "op": "Const",
        "attr": {
          "value": {
            "tensor": {
              "dtype": "DT_FLOAT",
              "tensorShape": { "dim": [{ "size": "672" }] }
            }
          },
          "dtype": { "type": "DT_FLOAT" }
        }
      },
      {
        "name": "PartitionedCall/transpose_140/perm",
        "op": "Const",
        "attr": {
          "dtype": { "type": "DT_INT32" },
          "value": {
            "tensor": {
              "dtype": "DT_INT32",
              "tensorShape": { "dim": [{ "size": "4" }] }
            }
          }
        }
      },
      {
        "name": "PartitionedCall/transpose_148/perm",
        "op": "Const",
        "attr": {
          "value": {
            "tensor": {
              "dtype": "DT_INT32",
              "tensorShape": { "dim": [{ "size": "4" }] }
            }
          },
          "dtype": { "type": "DT_INT32" }
        }
      },
      {
        "name": "PartitionedCall/split_49",
        "op": "Const",
        "attr": {
          "value": {
            "tensor": {
              "dtype": "DT_FLOAT",
              "tensorShape": {
                "dim": [
                  { "size": "1" },
                  { "size": "1" },
                  { "size": "672" },
                  { "size": "112" }
                ]
              }
            }
          },
          "dtype": { "type": "DT_FLOAT" }
        }
      },
      {
        "name": "unknown_98",
        "op": "Const",
        "attr": {
          "dtype": { "type": "DT_FLOAT" },
          "value": {
            "tensor": {
              "dtype": "DT_FLOAT",
              "tensorShape": { "dim": [{ "size": "112" }] }
            }
          }
        }
      },
      {
        "name": "PartitionedCall/transpose_149/perm",
        "op": "Const",
        "attr": {
          "value": {
            "tensor": {
              "dtype": "DT_INT32",
              "tensorShape": { "dim": [{ "size": "4" }] }
            }
          },
          "dtype": { "type": "DT_INT32" }
        }
      },
      {
        "name": "ConstantFolding/PartitionedCall/split_41-folded-1",
        "op": "Const",
        "attr": {
          "dtype": { "type": "DT_INT32" },
          "value": {
            "tensor": {
              "dtype": "DT_INT32",
              "tensorShape": { "dim": [{ "size": "2" }] }
            }
          }
        }
      },
      {
        "name": "PartitionedCall/transpose_127/perm",
        "op": "Const",
        "attr": {
          "dtype": { "type": "DT_INT32" },
          "value": {
            "tensor": {
              "dtype": "DT_INT32",
              "tensorShape": { "dim": [{ "size": "4" }] }
            }
          }
        }
      },
      {
        "name": "PartitionedCall/split_42",
        "op": "Const",
        "attr": {
          "value": {
            "tensor": {
              "dtype": "DT_FLOAT",
              "tensorShape": {
                "dim": [
                  { "size": "1" },
                  { "size": "1" },
                  { "size": "480" },
                  { "size": "20" }
                ]
              }
            }
          },
          "dtype": { "type": "DT_FLOAT" }
        }
      },
      {
        "name": "unknown_84",
        "op": "Const",
        "attr": {
          "dtype": { "type": "DT_FLOAT" },
          "value": {
            "tensor": {
              "dtype": "DT_FLOAT",
              "tensorShape": { "dim": [{ "size": "20" }] }
            }
          }
        }
      },
      {
        "name": "PartitionedCall/transpose_128/perm",
        "op": "Const",
        "attr": {
          "dtype": { "type": "DT_INT32" },
          "value": {
            "tensor": {
              "dtype": "DT_INT32",
              "tensorShape": { "dim": [{ "size": "4" }] }
            }
          }
        }
      },
      {
        "name": "PartitionedCall/transpose_130/perm",
        "op": "Const",
        "attr": {
          "value": {
            "tensor": {
              "dtype": "DT_INT32",
              "tensorShape": { "dim": [{ "size": "4" }] }
            }
          },
          "dtype": { "type": "DT_INT32" }
        }
      },
      {
        "name": "PartitionedCall/split_43",
        "op": "Const",
        "attr": {
          "value": {
            "tensor": {
              "dtype": "DT_FLOAT",
              "tensorShape": {
                "dim": [
                  { "size": "1" },
                  { "size": "1" },
                  { "size": "20" },
                  { "size": "480" }
                ]
              }
            }
          },
          "dtype": { "type": "DT_FLOAT" }
        }
      },
      {
        "name": "unknown_86",
        "op": "Const",
        "attr": {
          "value": {
            "tensor": {
              "dtype": "DT_FLOAT",
              "tensorShape": { "dim": [{ "size": "480" }] }
            }
          },
          "dtype": { "type": "DT_FLOAT" }
        }
      },
      {
        "name": "PartitionedCall/transpose_131/perm",
        "op": "Const",
        "attr": {
          "value": {
            "tensor": {
              "dtype": "DT_INT32",
              "tensorShape": { "dim": [{ "size": "4" }] }
            }
          },
          "dtype": { "type": "DT_INT32" }
        }
      },
      {
        "name": "PartitionedCall/onnx_tf_prefix_/_blocks.8/_depthwise_conv/static_padding/Constant_8",
        "op": "Const",
        "attr": {
          "value": { "tensor": { "dtype": "DT_FLOAT", "tensorShape": {} } },
          "dtype": { "type": "DT_FLOAT" }
        }
      },
      {
        "name": "ConstantFolding/PartitionedCall/split_36-folded-1",
        "op": "Const",
        "attr": {
          "dtype": { "type": "DT_INT32" },
          "value": {
            "tensor": {
              "dtype": "DT_INT32",
              "tensorShape": { "dim": [{ "size": "2" }] }
            }
          }
        }
      },
      {
        "name": "PartitionedCall/transpose_112/perm",
        "op": "Const",
        "attr": {
          "value": {
            "tensor": {
              "dtype": "DT_INT32",
              "tensorShape": { "dim": [{ "size": "4" }] }
            }
          },
          "dtype": { "type": "DT_INT32" }
        }
      },
      {
        "name": "PartitionedCall/split_37",
        "op": "Const",
        "attr": {
          "dtype": { "type": "DT_FLOAT" },
          "value": {
            "tensor": {
              "dtype": "DT_FLOAT",
              "tensorShape": {
                "dim": [
                  { "size": "1" },
                  { "size": "1" },
                  { "size": "480" },
                  { "size": "20" }
                ]
              }
            }
          }
        }
      },
      {
        "name": "unknown_74",
        "op": "Const",
        "attr": {
          "value": {
            "tensor": {
              "dtype": "DT_FLOAT",
              "tensorShape": { "dim": [{ "size": "20" }] }
            }
          },
          "dtype": { "type": "DT_FLOAT" }
        }
      },
      {
        "name": "PartitionedCall/transpose_113/perm",
        "op": "Const",
        "attr": {
          "value": {
            "tensor": {
              "dtype": "DT_INT32",
              "tensorShape": { "dim": [{ "size": "4" }] }
            }
          },
          "dtype": { "type": "DT_INT32" }
        }
      },
      {
        "name": "PartitionedCall/transpose_115/perm",
        "op": "Const",
        "attr": {
          "value": {
            "tensor": {
              "dtype": "DT_INT32",
              "tensorShape": { "dim": [{ "size": "4" }] }
            }
          },
          "dtype": { "type": "DT_INT32" }
        }
      },
      {
        "name": "PartitionedCall/split_38",
        "op": "Const",
        "attr": {
          "value": {
            "tensor": {
              "dtype": "DT_FLOAT",
              "tensorShape": {
                "dim": [
                  { "size": "1" },
                  { "size": "1" },
                  { "size": "20" },
                  { "size": "480" }
                ]
              }
            }
          },
          "dtype": { "type": "DT_FLOAT" }
        }
      },
      {
        "name": "unknown_76",
        "op": "Const",
        "attr": {
          "dtype": { "type": "DT_FLOAT" },
          "value": {
            "tensor": {
              "dtype": "DT_FLOAT",
              "tensorShape": { "dim": [{ "size": "480" }] }
            }
          }
        }
      },
      {
        "name": "PartitionedCall/transpose_116/perm",
        "op": "Const",
        "attr": {
          "dtype": { "type": "DT_INT32" },
          "value": {
            "tensor": {
              "dtype": "DT_INT32",
              "tensorShape": { "dim": [{ "size": "4" }] }
            }
          }
        }
      },
      {
        "name": "PartitionedCall/onnx_tf_prefix_/_blocks.7/_depthwise_conv/static_padding/Constant_8",
        "op": "Const",
        "attr": {
          "dtype": { "type": "DT_FLOAT" },
          "value": { "tensor": { "dtype": "DT_FLOAT", "tensorShape": {} } }
        }
      },
      {
        "name": "PartitionedCall/transpose_106/perm",
        "op": "Const",
        "attr": {
          "dtype": { "type": "DT_INT32" },
          "value": {
            "tensor": {
              "dtype": "DT_INT32",
              "tensorShape": { "dim": [{ "size": "4" }] }
            }
          }
        }
      },
      {
        "name": "PartitionedCall/split_35",
        "op": "Const",
        "attr": {
          "dtype": { "type": "DT_FLOAT" },
          "value": {
            "tensor": {
              "dtype": "DT_FLOAT",
              "tensorShape": {
                "dim": [
                  { "size": "1" },
                  { "size": "1" },
                  { "size": "80" },
                  { "size": "480" }
                ]
              }
            }
          }
        }
      },
      {
        "name": "unknown_70",
        "op": "Const",
        "attr": {
          "dtype": { "type": "DT_FLOAT" },
          "value": {
            "tensor": {
              "dtype": "DT_FLOAT",
              "tensorShape": { "dim": [{ "size": "480" }] }
            }
          }
        }
      },
      {
        "name": "PartitionedCall/transpose_107/perm",
        "op": "Const",
        "attr": {
          "dtype": { "type": "DT_INT32" },
          "value": {
            "tensor": {
              "dtype": "DT_INT32",
              "tensorShape": { "dim": [{ "size": "4" }] }
            }
          }
        }
      },
      {
        "name": "PartitionedCall/onnx_tf_prefix_/_blocks.7/_depthwise_conv/static_padding/Concat",
        "op": "Const",
        "attr": {
          "value": {
            "tensor": {
              "dtype": "DT_INT64",
              "tensorShape": { "dim": [{ "size": "8" }] }
            }
          },
          "dtype": { "type": "DT_INT64" }
        }
      },
      {
        "name": "PartitionedCall/onnx_tf_prefix_/_blocks.7/_depthwise_conv/static_padding/Constant_2",
        "op": "Const",
        "attr": {
          "dtype": { "type": "DT_INT64" },
          "value": {
            "tensor": {
              "dtype": "DT_INT64",
              "tensorShape": { "dim": [{ "size": "2" }] }
            }
          }
        }
      },
      {
        "name": "PartitionedCall/Where_16",
        "op": "Const",
        "attr": {
          "dtype": { "type": "DT_INT64" },
          "value": {
            "tensor": {
              "dtype": "DT_INT64",
              "tensorShape": { "dim": [{}, { "size": "1" }] }
            }
          }
        }
      },
      {
        "name": "PartitionedCall/Cast_32",
        "op": "Const",
        "attr": {
          "dtype": { "type": "DT_INT64" },
          "value": {
            "tensor": {
              "dtype": "DT_INT64",
              "tensorShape": { "dim": [{ "size": "1" }] }
            }
          }
        }
      },
      {
        "name": "PartitionedCall/GatherV2_16",
        "op": "Const",
        "attr": {
          "value": {
            "tensor": { "dtype": "DT_INT64", "tensorShape": { "dim": [{}] } }
          },
          "dtype": { "type": "DT_INT64" }
        }
      },
      {
        "name": "PartitionedCall/zeros_32",
        "op": "Const",
        "attr": {
          "value": { "tensor": { "dtype": "DT_INT64", "tensorShape": {} } },
          "dtype": { "type": "DT_INT64" }
        }
      },
      {
        "name": "PartitionedCall/SelectV2_33",
        "op": "Const",
        "attr": {
          "value": {
            "tensor": {
              "dtype": "DT_INT64",
              "tensorShape": { "dim": [{ "size": "1" }] }
            }
          },
          "dtype": { "type": "DT_INT64" }
        }
      },
      {
        "name": "PartitionedCall/zeros_33",
        "op": "Const",
        "attr": {
          "dtype": { "type": "DT_INT64" },
          "value": { "tensor": { "dtype": "DT_INT64", "tensorShape": {} } }
        }
      },
      {
        "name": "PartitionedCall/Const_50",
        "op": "Const",
        "attr": {
          "value": { "tensor": { "dtype": "DT_INT64", "tensorShape": {} } },
          "dtype": { "type": "DT_INT64" }
        }
      },
      {
        "name": "PartitionedCall/Shape_78",
        "op": "Const",
        "attr": {
          "dtype": { "type": "DT_INT64" },
          "value": {
            "tensor": {
              "dtype": "DT_INT64",
              "tensorShape": { "dim": [{ "size": "2" }] }
            }
          }
        }
      },
      {
        "name": "PartitionedCall/SelectV2_34",
        "op": "Const",
        "attr": {
          "dtype": { "type": "DT_INT64" },
          "value": {
            "tensor": {
              "dtype": "DT_INT64",
              "tensorShape": { "dim": [{ "size": "1" }] }
            }
          }
        }
      },
      {
        "name": "PartitionedCall/Const_49",
        "op": "Const",
        "attr": {
          "dtype": { "type": "DT_INT64" },
          "value": { "tensor": { "dtype": "DT_INT64", "tensorShape": {} } }
        }
      },
      {
        "name": "PartitionedCall/ExpandDims_8",
        "op": "Const",
        "attr": {
          "value": {
            "tensor": {
              "dtype": "DT_INT64",
              "tensorShape": { "dim": [{ "size": "1" }, { "size": "1" }] }
            }
          },
          "dtype": { "type": "DT_INT64" }
        }
      },
      {
        "name": "PartitionedCall/Cast_34",
        "op": "Const",
        "attr": {
          "dtype": { "type": "DT_INT64" },
          "value": {
            "tensor": {
              "dtype": "DT_INT64",
              "tensorShape": { "dim": [{ "size": "1" }] }
            }
          }
        }
      },
      {
        "name": "PartitionedCall/onnx_tf_prefix_/_blocks.7/_depthwise_conv/static_padding/Constant_6",
        "op": "Const",
        "attr": {
          "dtype": { "type": "DT_INT64" },
          "value": {
            "tensor": {
              "dtype": "DT_INT64",
              "tensorShape": { "dim": [{ "size": "1" }] }
            }
          }
        }
      },
      {
        "name": "PartitionedCall/Const_51",
        "op": "Const",
        "attr": {
          "value": { "tensor": { "dtype": "DT_INT64", "tensorShape": {} } },
          "dtype": { "type": "DT_INT64" }
        }
      },
      {
        "name": "PartitionedCall/onnx_tf_prefix_/_blocks.7/_depthwise_conv/static_padding/Transpose/perm",
        "op": "Const",
        "attr": {
          "value": {
            "tensor": {
              "dtype": "DT_INT32",
              "tensorShape": { "dim": [{ "size": "2" }] }
            }
          },
          "dtype": { "type": "DT_INT32" }
        }
      },
      {
        "name": "PartitionedCall/onnx_tf_prefix_/_blocks.7/_depthwise_conv/static_padding/Constant_7",
        "op": "Const",
        "attr": {
          "dtype": { "type": "DT_INT64" },
          "value": {
            "tensor": {
              "dtype": "DT_INT64",
              "tensorShape": { "dim": [{ "size": "1" }] }
            }
          }
        }
      },
      {
        "name": "PartitionedCall/Where_17",
        "op": "Const",
        "attr": {
          "dtype": { "type": "DT_INT64" },
          "value": {
            "tensor": {
              "dtype": "DT_INT64",
              "tensorShape": { "dim": [{}, { "size": "1" }] }
            }
          }
        }
      },
      {
        "name": "PartitionedCall/Cast_35",
        "op": "Const",
        "attr": {
          "value": {
            "tensor": {
              "dtype": "DT_INT64",
              "tensorShape": { "dim": [{ "size": "1" }] }
            }
          },
          "dtype": { "type": "DT_INT64" }
        }
      },
      {
        "name": "PartitionedCall/GatherV2_17",
        "op": "Const",
        "attr": {
          "dtype": { "type": "DT_INT64" },
          "value": {
            "tensor": { "dtype": "DT_INT64", "tensorShape": { "dim": [{}] } }
          }
        }
      },
      {
        "name": "PartitionedCall/zeros_34",
        "op": "Const",
        "attr": {
          "value": { "tensor": { "dtype": "DT_INT64", "tensorShape": {} } },
          "dtype": { "type": "DT_INT64" }
        }
      },
      {
        "name": "PartitionedCall/zeros_35",
        "op": "Const",
        "attr": {
          "value": {
            "tensor": {
              "dtype": "DT_INT64",
              "tensorShape": { "dim": [{ "size": "1" }] }
            }
          },
          "dtype": { "type": "DT_INT64" }
        }
      },
      {
        "name": "PartitionedCall/Const_53",
        "op": "Const",
        "attr": {
          "value": {
            "tensor": {
              "dtype": "DT_INT32",
              "tensorShape": { "dim": [{ "size": "1" }] }
            }
          },
          "dtype": { "type": "DT_INT32" }
        }
      },
      {
        "name": "PartitionedCall/transpose_109/perm",
        "op": "Const",
        "attr": {
          "dtype": { "type": "DT_INT32" },
          "value": {
            "tensor": {
              "dtype": "DT_INT32",
              "tensorShape": { "dim": [{ "size": "4" }] }
            }
          }
        }
      },
      {
        "name": "PartitionedCall/Reshape_16",
        "op": "Const",
        "attr": {
          "value": {
            "tensor": {
              "dtype": "DT_FLOAT",
              "tensorShape": {
                "dim": [
                  { "size": "3" },
                  { "size": "3" },
                  { "size": "480" },
                  { "size": "1" }
                ]
              }
            }
          },
          "dtype": { "type": "DT_FLOAT" }
        }
      },
      {
        "name": "unknown_72",
        "op": "Const",
        "attr": {
          "value": {
            "tensor": {
              "dtype": "DT_FLOAT",
              "tensorShape": { "dim": [{ "size": "480" }] }
            }
          },
          "dtype": { "type": "DT_FLOAT" }
        }
      },
      {
        "name": "PartitionedCall/transpose_110/perm",
        "op": "Const",
        "attr": {
          "value": {
            "tensor": {
              "dtype": "DT_INT32",
              "tensorShape": { "dim": [{ "size": "4" }] }
            }
          },
          "dtype": { "type": "DT_INT32" }
        }
      },
      {
        "name": "PartitionedCall/transpose_118/perm",
        "op": "Const",
        "attr": {
          "dtype": { "type": "DT_INT32" },
          "value": {
            "tensor": {
              "dtype": "DT_INT32",
              "tensorShape": { "dim": [{ "size": "4" }] }
            }
          }
        }
      },
      {
        "name": "PartitionedCall/split_39",
        "op": "Const",
        "attr": {
          "value": {
            "tensor": {
              "dtype": "DT_FLOAT",
              "tensorShape": {
                "dim": [
                  { "size": "1" },
                  { "size": "1" },
                  { "size": "480" },
                  { "size": "80" }
                ]
              }
            }
          },
          "dtype": { "type": "DT_FLOAT" }
        }
      },
      {
        "name": "unknown_78",
        "op": "Const",
        "attr": {
          "value": {
            "tensor": {
              "dtype": "DT_FLOAT",
              "tensorShape": { "dim": [{ "size": "80" }] }
            }
          },
          "dtype": { "type": "DT_FLOAT" }
        }
      },
      {
        "name": "PartitionedCall/transpose_119/perm",
        "op": "Const",
        "attr": {
          "dtype": { "type": "DT_INT32" },
          "value": {
            "tensor": {
              "dtype": "DT_INT32",
              "tensorShape": { "dim": [{ "size": "4" }] }
            }
          }
        }
      },
      {
        "name": "ConstantFolding/PartitionedCall/split_31-folded-1",
        "op": "Const",
        "attr": {
          "dtype": { "type": "DT_INT32" },
          "value": {
            "tensor": {
              "dtype": "DT_INT32",
              "tensorShape": { "dim": [{ "size": "2" }] }
            }
          }
        }
      },
      {
        "name": "PartitionedCall/transpose_97/perm",
        "op": "Const",
        "attr": {
          "dtype": { "type": "DT_INT32" },
          "value": {
            "tensor": {
              "dtype": "DT_INT32",
              "tensorShape": { "dim": [{ "size": "4" }] }
            }
          }
        }
      },
      {
        "name": "PartitionedCall/split_32",
        "op": "Const",
        "attr": {
          "value": {
            "tensor": {
              "dtype": "DT_FLOAT",
              "tensorShape": {
                "dim": [
                  { "size": "1" },
                  { "size": "1" },
                  { "size": "480" },
                  { "size": "20" }
                ]
              }
            }
          },
          "dtype": { "type": "DT_FLOAT" }
        }
      },
      {
        "name": "unknown_64",
        "op": "Const",
        "attr": {
          "value": {
            "tensor": {
              "dtype": "DT_FLOAT",
              "tensorShape": { "dim": [{ "size": "20" }] }
            }
          },
          "dtype": { "type": "DT_FLOAT" }
        }
      },
      {
        "name": "PartitionedCall/transpose_98/perm",
        "op": "Const",
        "attr": {
          "dtype": { "type": "DT_INT32" },
          "value": {
            "tensor": {
              "dtype": "DT_INT32",
              "tensorShape": { "dim": [{ "size": "4" }] }
            }
          }
        }
      },
      {
        "name": "PartitionedCall/transpose_100/perm",
        "op": "Const",
        "attr": {
          "dtype": { "type": "DT_INT32" },
          "value": {
            "tensor": {
              "dtype": "DT_INT32",
              "tensorShape": { "dim": [{ "size": "4" }] }
            }
          }
        }
      },
      {
        "name": "PartitionedCall/split_33",
        "op": "Const",
        "attr": {
          "value": {
            "tensor": {
              "dtype": "DT_FLOAT",
              "tensorShape": {
                "dim": [
                  { "size": "1" },
                  { "size": "1" },
                  { "size": "20" },
                  { "size": "480" }
                ]
              }
            }
          },
          "dtype": { "type": "DT_FLOAT" }
        }
      },
      {
        "name": "unknown_66",
        "op": "Const",
        "attr": {
          "value": {
            "tensor": {
              "dtype": "DT_FLOAT",
              "tensorShape": { "dim": [{ "size": "480" }] }
            }
          },
          "dtype": { "type": "DT_FLOAT" }
        }
      },
      {
        "name": "PartitionedCall/transpose_101/perm",
        "op": "Const",
        "attr": {
          "value": {
            "tensor": {
              "dtype": "DT_INT32",
              "tensorShape": { "dim": [{ "size": "4" }] }
            }
          },
          "dtype": { "type": "DT_INT32" }
        }
      },
      {
        "name": "PartitionedCall/onnx_tf_prefix_/_blocks.6/_depthwise_conv/static_padding/Constant_8",
        "op": "Const",
        "attr": {
          "dtype": { "type": "DT_FLOAT" },
          "value": { "tensor": { "dtype": "DT_FLOAT", "tensorShape": {} } }
        }
      },
      {
        "name": "PartitionedCall/split_30",
        "op": "Const",
        "attr": {
          "dtype": { "type": "DT_FLOAT" },
          "value": {
            "tensor": {
              "dtype": "DT_FLOAT",
              "tensorShape": {
                "dim": [
                  { "size": "1" },
                  { "size": "1" },
                  { "size": "80" },
                  { "size": "480" }
                ]
              }
            }
          }
        }
      },
      {
        "name": "unknown_60",
        "op": "Const",
        "attr": {
          "dtype": { "type": "DT_FLOAT" },
          "value": {
            "tensor": {
              "dtype": "DT_FLOAT",
              "tensorShape": { "dim": [{ "size": "480" }] }
            }
          }
        }
      },
      {
        "name": "PartitionedCall/transpose_92/perm",
        "op": "Const",
        "attr": {
          "dtype": { "type": "DT_INT32" },
          "value": {
            "tensor": {
              "dtype": "DT_INT32",
              "tensorShape": { "dim": [{ "size": "4" }] }
            }
          }
        }
      },
      {
        "name": "PartitionedCall/onnx_tf_prefix_/_blocks.6/_depthwise_conv/static_padding/Concat",
        "op": "Const",
        "attr": {
          "dtype": { "type": "DT_INT64" },
          "value": {
            "tensor": {
              "dtype": "DT_INT64",
              "tensorShape": { "dim": [{ "size": "8" }] }
            }
          }
        }
      },
      {
        "name": "PartitionedCall/onnx_tf_prefix_/_blocks.6/_depthwise_conv/static_padding/Constant_2",
        "op": "Const",
        "attr": {
          "dtype": { "type": "DT_INT64" },
          "value": {
            "tensor": {
              "dtype": "DT_INT64",
              "tensorShape": { "dim": [{ "size": "2" }] }
            }
          }
        }
      },
      {
        "name": "PartitionedCall/Where_14",
        "op": "Const",
        "attr": {
          "dtype": { "type": "DT_INT64" },
          "value": {
            "tensor": {
              "dtype": "DT_INT64",
              "tensorShape": { "dim": [{}, { "size": "1" }] }
            }
          }
        }
      },
      {
        "name": "PartitionedCall/Cast_28",
        "op": "Const",
        "attr": {
          "dtype": { "type": "DT_INT64" },
          "value": {
            "tensor": {
              "dtype": "DT_INT64",
              "tensorShape": { "dim": [{ "size": "1" }] }
            }
          }
        }
      },
      {
        "name": "PartitionedCall/GatherV2_14",
        "op": "Const",
        "attr": {
          "value": {
            "tensor": { "dtype": "DT_INT64", "tensorShape": { "dim": [{}] } }
          },
          "dtype": { "type": "DT_INT64" }
        }
      },
      {
        "name": "PartitionedCall/zeros_28",
        "op": "Const",
        "attr": {
          "value": { "tensor": { "dtype": "DT_INT64", "tensorShape": {} } },
          "dtype": { "type": "DT_INT64" }
        }
      },
      {
        "name": "PartitionedCall/SelectV2_29",
        "op": "Const",
        "attr": {
          "dtype": { "type": "DT_INT64" },
          "value": {
            "tensor": {
              "dtype": "DT_INT64",
              "tensorShape": { "dim": [{ "size": "1" }] }
            }
          }
        }
      },
      {
        "name": "PartitionedCall/zeros_29",
        "op": "Const",
        "attr": {
          "dtype": { "type": "DT_INT64" },
          "value": { "tensor": { "dtype": "DT_INT64", "tensorShape": {} } }
        }
      },
      {
        "name": "PartitionedCall/Const_44",
        "op": "Const",
        "attr": {
          "dtype": { "type": "DT_INT64" },
          "value": { "tensor": { "dtype": "DT_INT64", "tensorShape": {} } }
        }
      },
      {
        "name": "PartitionedCall/Shape_68",
        "op": "Const",
        "attr": {
          "value": {
            "tensor": {
              "dtype": "DT_INT64",
              "tensorShape": { "dim": [{ "size": "2" }] }
            }
          },
          "dtype": { "type": "DT_INT64" }
        }
      },
      {
        "name": "PartitionedCall/SelectV2_30",
        "op": "Const",
        "attr": {
          "value": {
            "tensor": {
              "dtype": "DT_INT64",
              "tensorShape": { "dim": [{ "size": "1" }] }
            }
          },
          "dtype": { "type": "DT_INT64" }
        }
      },
      {
        "name": "PartitionedCall/Const_43",
        "op": "Const",
        "attr": {
          "value": { "tensor": { "dtype": "DT_INT64", "tensorShape": {} } },
          "dtype": { "type": "DT_INT64" }
        }
      },
      {
        "name": "PartitionedCall/ExpandDims_7",
        "op": "Const",
        "attr": {
          "dtype": { "type": "DT_INT64" },
          "value": {
            "tensor": {
              "dtype": "DT_INT64",
              "tensorShape": { "dim": [{ "size": "1" }, { "size": "1" }] }
            }
          }
        }
      },
      {
        "name": "PartitionedCall/Cast_30",
        "op": "Const",
        "attr": {
          "value": {
            "tensor": {
              "dtype": "DT_INT64",
              "tensorShape": { "dim": [{ "size": "1" }] }
            }
          },
          "dtype": { "type": "DT_INT64" }
        }
      },
      {
        "name": "PartitionedCall/onnx_tf_prefix_/_blocks.6/_depthwise_conv/static_padding/Constant_6",
        "op": "Const",
        "attr": {
          "value": {
            "tensor": {
              "dtype": "DT_INT64",
              "tensorShape": { "dim": [{ "size": "1" }] }
            }
          },
          "dtype": { "type": "DT_INT64" }
        }
      },
      {
        "name": "PartitionedCall/Const_45",
        "op": "Const",
        "attr": {
          "value": { "tensor": { "dtype": "DT_INT64", "tensorShape": {} } },
          "dtype": { "type": "DT_INT64" }
        }
      },
      {
        "name": "PartitionedCall/onnx_tf_prefix_/_blocks.6/_depthwise_conv/static_padding/Transpose/perm",
        "op": "Const",
        "attr": {
          "value": {
            "tensor": {
              "dtype": "DT_INT32",
              "tensorShape": { "dim": [{ "size": "2" }] }
            }
          },
          "dtype": { "type": "DT_INT32" }
        }
      },
      {
        "name": "PartitionedCall/onnx_tf_prefix_/_blocks.6/_depthwise_conv/static_padding/Constant_7",
        "op": "Const",
        "attr": {
          "value": {
            "tensor": {
              "dtype": "DT_INT64",
              "tensorShape": { "dim": [{ "size": "1" }] }
            }
          },
          "dtype": { "type": "DT_INT64" }
        }
      },
      {
        "name": "PartitionedCall/Where_15",
        "op": "Const",
        "attr": {
          "dtype": { "type": "DT_INT64" },
          "value": {
            "tensor": {
              "dtype": "DT_INT64",
              "tensorShape": { "dim": [{}, { "size": "1" }] }
            }
          }
        }
      },
      {
        "name": "PartitionedCall/Cast_31",
        "op": "Const",
        "attr": {
          "dtype": { "type": "DT_INT64" },
          "value": {
            "tensor": {
              "dtype": "DT_INT64",
              "tensorShape": { "dim": [{ "size": "1" }] }
            }
          }
        }
      },
      {
        "name": "PartitionedCall/GatherV2_15",
        "op": "Const",
        "attr": {
          "value": {
            "tensor": { "dtype": "DT_INT64", "tensorShape": { "dim": [{}] } }
          },
          "dtype": { "type": "DT_INT64" }
        }
      },
      {
        "name": "PartitionedCall/zeros_30",
        "op": "Const",
        "attr": {
          "dtype": { "type": "DT_INT64" },
          "value": { "tensor": { "dtype": "DT_INT64", "tensorShape": {} } }
        }
      },
      {
        "name": "PartitionedCall/zeros_31",
        "op": "Const",
        "attr": {
          "value": {
            "tensor": {
              "dtype": "DT_INT64",
              "tensorShape": { "dim": [{ "size": "1" }] }
            }
          },
          "dtype": { "type": "DT_INT64" }
        }
      },
      {
        "name": "PartitionedCall/Const_47",
        "op": "Const",
        "attr": {
          "dtype": { "type": "DT_INT32" },
          "value": {
            "tensor": {
              "dtype": "DT_INT32",
              "tensorShape": { "dim": [{ "size": "1" }] }
            }
          }
        }
      },
      {
        "name": "PartitionedCall/transpose_94/perm",
        "op": "Const",
        "attr": {
          "value": {
            "tensor": {
              "dtype": "DT_INT32",
              "tensorShape": { "dim": [{ "size": "4" }] }
            }
          },
          "dtype": { "type": "DT_INT32" }
        }
      },
      {
        "name": "PartitionedCall/Reshape_14",
        "op": "Const",
        "attr": {
          "value": {
            "tensor": {
              "dtype": "DT_FLOAT",
              "tensorShape": {
                "dim": [
                  { "size": "3" },
                  { "size": "3" },
                  { "size": "480" },
                  { "size": "1" }
                ]
              }
            }
          },
          "dtype": { "type": "DT_FLOAT" }
        }
      },
      {
        "name": "unknown_62",
        "op": "Const",
        "attr": {
          "value": {
            "tensor": {
              "dtype": "DT_FLOAT",
              "tensorShape": { "dim": [{ "size": "480" }] }
            }
          },
          "dtype": { "type": "DT_FLOAT" }
        }
      },
      {
        "name": "PartitionedCall/transpose_95/perm",
        "op": "Const",
        "attr": {
          "dtype": { "type": "DT_INT32" },
          "value": {
            "tensor": {
              "dtype": "DT_INT32",
              "tensorShape": { "dim": [{ "size": "4" }] }
            }
          }
        }
      },
      {
        "name": "PartitionedCall/transpose_103/perm",
        "op": "Const",
        "attr": {
          "dtype": { "type": "DT_INT32" },
          "value": {
            "tensor": {
              "dtype": "DT_INT32",
              "tensorShape": { "dim": [{ "size": "4" }] }
            }
          }
        }
      },
      {
        "name": "PartitionedCall/split_34",
        "op": "Const",
        "attr": {
          "value": {
            "tensor": {
              "dtype": "DT_FLOAT",
              "tensorShape": {
                "dim": [
                  { "size": "1" },
                  { "size": "1" },
                  { "size": "480" },
                  { "size": "80" }
                ]
              }
            }
          },
          "dtype": { "type": "DT_FLOAT" }
        }
      },
      {
        "name": "unknown_68",
        "op": "Const",
        "attr": {
          "dtype": { "type": "DT_FLOAT" },
          "value": {
            "tensor": {
              "dtype": "DT_FLOAT",
              "tensorShape": { "dim": [{ "size": "80" }] }
            }
          }
        }
      },
      {
        "name": "PartitionedCall/transpose_104/perm",
        "op": "Const",
        "attr": {
          "dtype": { "type": "DT_INT32" },
          "value": {
            "tensor": {
              "dtype": "DT_INT32",
              "tensorShape": { "dim": [{ "size": "4" }] }
            }
          }
        }
      },
      {
        "name": "ConstantFolding/PartitionedCall/split_26-folded-1",
        "op": "Const",
        "attr": {
          "value": {
            "tensor": {
              "dtype": "DT_INT32",
              "tensorShape": { "dim": [{ "size": "2" }] }
            }
          },
          "dtype": { "type": "DT_INT32" }
        }
      },
      {
        "name": "PartitionedCall/transpose_82/perm",
        "op": "Const",
        "attr": {
          "dtype": { "type": "DT_INT32" },
          "value": {
            "tensor": {
              "dtype": "DT_INT32",
              "tensorShape": { "dim": [{ "size": "4" }] }
            }
          }
        }
      },
      {
        "name": "PartitionedCall/split_27",
        "op": "Const",
        "attr": {
          "value": {
            "tensor": {
              "dtype": "DT_FLOAT",
              "tensorShape": {
                "dim": [
                  { "size": "1" },
                  { "size": "1" },
                  { "size": "240" },
                  { "size": "10" }
                ]
              }
            }
          },
          "dtype": { "type": "DT_FLOAT" }
        }
      },
      {
        "name": "unknown_54",
        "op": "Const",
        "attr": {
          "dtype": { "type": "DT_FLOAT" },
          "value": {
            "tensor": {
              "dtype": "DT_FLOAT",
              "tensorShape": { "dim": [{ "size": "10" }] }
            }
          }
        }
      },
      {
        "name": "PartitionedCall/transpose_83/perm",
        "op": "Const",
        "attr": {
          "dtype": { "type": "DT_INT32" },
          "value": {
            "tensor": {
              "dtype": "DT_INT32",
              "tensorShape": { "dim": [{ "size": "4" }] }
            }
          }
        }
      },
      {
        "name": "PartitionedCall/transpose_85/perm",
        "op": "Const",
        "attr": {
          "value": {
            "tensor": {
              "dtype": "DT_INT32",
              "tensorShape": { "dim": [{ "size": "4" }] }
            }
          },
          "dtype": { "type": "DT_INT32" }
        }
      },
      {
        "name": "PartitionedCall/split_28",
        "op": "Const",
        "attr": {
          "dtype": { "type": "DT_FLOAT" },
          "value": {
            "tensor": {
              "dtype": "DT_FLOAT",
              "tensorShape": {
                "dim": [
                  { "size": "1" },
                  { "size": "1" },
                  { "size": "10" },
                  { "size": "240" }
                ]
              }
            }
          }
        }
      },
      {
        "name": "unknown_56",
        "op": "Const",
        "attr": {
          "value": {
            "tensor": {
              "dtype": "DT_FLOAT",
              "tensorShape": { "dim": [{ "size": "240" }] }
            }
          },
          "dtype": { "type": "DT_FLOAT" }
        }
      },
      {
        "name": "PartitionedCall/transpose_86/perm",
        "op": "Const",
        "attr": {
          "dtype": { "type": "DT_INT32" },
          "value": {
            "tensor": {
              "dtype": "DT_INT32",
              "tensorShape": { "dim": [{ "size": "4" }] }
            }
          }
        }
      },
      {
        "name": "PartitionedCall/onnx_tf_prefix_/_blocks.5/_depthwise_conv/static_padding/Constant_8",
        "op": "Const",
        "attr": {
          "value": { "tensor": { "dtype": "DT_FLOAT", "tensorShape": {} } },
          "dtype": { "type": "DT_FLOAT" }
        }
      },
      {
        "name": "ConstantFolding/PartitionedCall/split_21-folded-1",
        "op": "Const",
        "attr": {
          "dtype": { "type": "DT_INT32" },
          "value": {
            "tensor": {
              "dtype": "DT_INT32",
              "tensorShape": { "dim": [{ "size": "2" }] }
            }
          }
        }
      },
      {
        "name": "PartitionedCall/transpose_67/perm",
        "op": "Const",
        "attr": {
          "dtype": { "type": "DT_INT32" },
          "value": {
            "tensor": {
              "dtype": "DT_INT32",
              "tensorShape": { "dim": [{ "size": "4" }] }
            }
          }
        }
      },
      {
        "name": "PartitionedCall/split_22",
        "op": "Const",
        "attr": {
          "value": {
            "tensor": {
              "dtype": "DT_FLOAT",
              "tensorShape": {
                "dim": [
                  { "size": "1" },
                  { "size": "1" },
                  { "size": "240" },
                  { "size": "10" }
                ]
              }
            }
          },
          "dtype": { "type": "DT_FLOAT" }
        }
      },
      {
        "name": "unknown_44",
        "op": "Const",
        "attr": {
          "value": {
            "tensor": {
              "dtype": "DT_FLOAT",
              "tensorShape": { "dim": [{ "size": "10" }] }
            }
          },
          "dtype": { "type": "DT_FLOAT" }
        }
      },
      {
        "name": "PartitionedCall/transpose_68/perm",
        "op": "Const",
        "attr": {
          "dtype": { "type": "DT_INT32" },
          "value": {
            "tensor": {
              "dtype": "DT_INT32",
              "tensorShape": { "dim": [{ "size": "4" }] }
            }
          }
        }
      },
      {
        "name": "PartitionedCall/transpose_70/perm",
        "op": "Const",
        "attr": {
          "dtype": { "type": "DT_INT32" },
          "value": {
            "tensor": {
              "dtype": "DT_INT32",
              "tensorShape": { "dim": [{ "size": "4" }] }
            }
          }
        }
      },
      {
        "name": "PartitionedCall/split_23",
        "op": "Const",
        "attr": {
          "value": {
            "tensor": {
              "dtype": "DT_FLOAT",
              "tensorShape": {
                "dim": [
                  { "size": "1" },
                  { "size": "1" },
                  { "size": "10" },
                  { "size": "240" }
                ]
              }
            }
          },
          "dtype": { "type": "DT_FLOAT" }
        }
      },
      {
        "name": "unknown_46",
        "op": "Const",
        "attr": {
          "value": {
            "tensor": {
              "dtype": "DT_FLOAT",
              "tensorShape": { "dim": [{ "size": "240" }] }
            }
          },
          "dtype": { "type": "DT_FLOAT" }
        }
      },
      {
        "name": "PartitionedCall/transpose_71/perm",
        "op": "Const",
        "attr": {
          "value": {
            "tensor": {
              "dtype": "DT_INT32",
              "tensorShape": { "dim": [{ "size": "4" }] }
            }
          },
          "dtype": { "type": "DT_INT32" }
        }
      },
      {
        "name": "PartitionedCall/onnx_tf_prefix_/_blocks.4/_depthwise_conv/static_padding/Constant_8",
        "op": "Const",
        "attr": {
          "dtype": { "type": "DT_FLOAT" },
          "value": { "tensor": { "dtype": "DT_FLOAT", "tensorShape": {} } }
        }
      },
      {
        "name": "PartitionedCall/split_20",
        "op": "Const",
        "attr": {
          "dtype": { "type": "DT_FLOAT" },
          "value": {
            "tensor": {
              "dtype": "DT_FLOAT",
              "tensorShape": {
                "dim": [
                  { "size": "1" },
                  { "size": "1" },
                  { "size": "40" },
                  { "size": "240" }
                ]
              }
            }
          }
        }
      },
      {
        "name": "unknown_40",
        "op": "Const",
        "attr": {
          "dtype": { "type": "DT_FLOAT" },
          "value": {
            "tensor": {
              "dtype": "DT_FLOAT",
              "tensorShape": { "dim": [{ "size": "240" }] }
            }
          }
        }
      },
      {
        "name": "PartitionedCall/transpose_62/perm",
        "op": "Const",
        "attr": {
          "dtype": { "type": "DT_INT32" },
          "value": {
            "tensor": {
              "dtype": "DT_INT32",
              "tensorShape": { "dim": [{ "size": "4" }] }
            }
          }
        }
      },
      {
        "name": "PartitionedCall/onnx_tf_prefix_/_blocks.4/_depthwise_conv/static_padding/Concat",
        "op": "Const",
        "attr": {
          "dtype": { "type": "DT_INT64" },
          "value": {
            "tensor": {
              "dtype": "DT_INT64",
              "tensorShape": { "dim": [{ "size": "8" }] }
            }
          }
        }
      },
      {
        "name": "PartitionedCall/onnx_tf_prefix_/_blocks.4/_depthwise_conv/static_padding/Constant_2",
        "op": "Const",
        "attr": {
          "dtype": { "type": "DT_INT64" },
          "value": {
            "tensor": {
              "dtype": "DT_INT64",
              "tensorShape": { "dim": [{ "size": "2" }] }
            }
          }
        }
      },
      {
        "name": "PartitionedCall/Where_10",
        "op": "Const",
        "attr": {
          "dtype": { "type": "DT_INT64" },
          "value": {
            "tensor": {
              "dtype": "DT_INT64",
              "tensorShape": { "dim": [{}, { "size": "1" }] }
            }
          }
        }
      },
      {
        "name": "PartitionedCall/Cast_20",
        "op": "Const",
        "attr": {
          "value": {
            "tensor": {
              "dtype": "DT_INT64",
              "tensorShape": { "dim": [{ "size": "1" }] }
            }
          },
          "dtype": { "type": "DT_INT64" }
        }
      },
      {
        "name": "PartitionedCall/GatherV2_10",
        "op": "Const",
        "attr": {
          "value": {
            "tensor": { "dtype": "DT_INT64", "tensorShape": { "dim": [{}] } }
          },
          "dtype": { "type": "DT_INT64" }
        }
      },
      {
        "name": "PartitionedCall/zeros_20",
        "op": "Const",
        "attr": {
          "dtype": { "type": "DT_INT64" },
          "value": { "tensor": { "dtype": "DT_INT64", "tensorShape": {} } }
        }
      },
      {
        "name": "PartitionedCall/SelectV2_21",
        "op": "Const",
        "attr": {
          "value": {
            "tensor": {
              "dtype": "DT_INT64",
              "tensorShape": { "dim": [{ "size": "1" }] }
            }
          },
          "dtype": { "type": "DT_INT64" }
        }
      },
      {
        "name": "PartitionedCall/zeros_21",
        "op": "Const",
        "attr": {
          "value": { "tensor": { "dtype": "DT_INT64", "tensorShape": {} } },
          "dtype": { "type": "DT_INT64" }
        }
      },
      {
        "name": "PartitionedCall/Const_32",
        "op": "Const",
        "attr": {
          "dtype": { "type": "DT_INT64" },
          "value": { "tensor": { "dtype": "DT_INT64", "tensorShape": {} } }
        }
      },
      {
        "name": "PartitionedCall/Shape_48",
        "op": "Const",
        "attr": {
          "value": {
            "tensor": {
              "dtype": "DT_INT64",
              "tensorShape": { "dim": [{ "size": "2" }] }
            }
          },
          "dtype": { "type": "DT_INT64" }
        }
      },
      {
        "name": "PartitionedCall/SelectV2_22",
        "op": "Const",
        "attr": {
          "dtype": { "type": "DT_INT64" },
          "value": {
            "tensor": {
              "dtype": "DT_INT64",
              "tensorShape": { "dim": [{ "size": "1" }] }
            }
          }
        }
      },
      {
        "name": "PartitionedCall/Const_31",
        "op": "Const",
        "attr": {
          "dtype": { "type": "DT_INT64" },
          "value": { "tensor": { "dtype": "DT_INT64", "tensorShape": {} } }
        }
      },
      {
        "name": "PartitionedCall/ExpandDims_5",
        "op": "Const",
        "attr": {
          "value": {
            "tensor": {
              "dtype": "DT_INT64",
              "tensorShape": { "dim": [{ "size": "1" }, { "size": "1" }] }
            }
          },
          "dtype": { "type": "DT_INT64" }
        }
      },
      {
        "name": "PartitionedCall/Cast_22",
        "op": "Const",
        "attr": {
          "value": {
            "tensor": {
              "dtype": "DT_INT64",
              "tensorShape": { "dim": [{ "size": "1" }] }
            }
          },
          "dtype": { "type": "DT_INT64" }
        }
      },
      {
        "name": "PartitionedCall/onnx_tf_prefix_/_blocks.4/_depthwise_conv/static_padding/Constant_6",
        "op": "Const",
        "attr": {
          "value": {
            "tensor": {
              "dtype": "DT_INT64",
              "tensorShape": { "dim": [{ "size": "1" }] }
            }
          },
          "dtype": { "type": "DT_INT64" }
        }
      },
      {
        "name": "PartitionedCall/Const_33",
        "op": "Const",
        "attr": {
          "dtype": { "type": "DT_INT64" },
          "value": { "tensor": { "dtype": "DT_INT64", "tensorShape": {} } }
        }
      },
      {
        "name": "PartitionedCall/onnx_tf_prefix_/_blocks.4/_depthwise_conv/static_padding/Transpose/perm",
        "op": "Const",
        "attr": {
          "value": {
            "tensor": {
              "dtype": "DT_INT32",
              "tensorShape": { "dim": [{ "size": "2" }] }
            }
          },
          "dtype": { "type": "DT_INT32" }
        }
      },
      {
        "name": "PartitionedCall/onnx_tf_prefix_/_blocks.4/_depthwise_conv/static_padding/Constant_7",
        "op": "Const",
        "attr": {
          "value": {
            "tensor": {
              "dtype": "DT_INT64",
              "tensorShape": { "dim": [{ "size": "1" }] }
            }
          },
          "dtype": { "type": "DT_INT64" }
        }
      },
      {
        "name": "PartitionedCall/Where_11",
        "op": "Const",
        "attr": {
          "dtype": { "type": "DT_INT64" },
          "value": {
            "tensor": {
              "dtype": "DT_INT64",
              "tensorShape": { "dim": [{}, { "size": "1" }] }
            }
          }
        }
      },
      {
        "name": "PartitionedCall/Cast_23",
        "op": "Const",
        "attr": {
          "value": {
            "tensor": {
              "dtype": "DT_INT64",
              "tensorShape": { "dim": [{ "size": "1" }] }
            }
          },
          "dtype": { "type": "DT_INT64" }
        }
      },
      {
        "name": "PartitionedCall/GatherV2_11",
        "op": "Const",
        "attr": {
          "dtype": { "type": "DT_INT64" },
          "value": {
            "tensor": { "dtype": "DT_INT64", "tensorShape": { "dim": [{}] } }
          }
        }
      },
      {
        "name": "PartitionedCall/zeros_22",
        "op": "Const",
        "attr": {
          "value": { "tensor": { "dtype": "DT_INT64", "tensorShape": {} } },
          "dtype": { "type": "DT_INT64" }
        }
      },
      {
        "name": "PartitionedCall/zeros_23",
        "op": "Const",
        "attr": {
          "value": {
            "tensor": {
              "dtype": "DT_INT64",
              "tensorShape": { "dim": [{ "size": "1" }] }
            }
          },
          "dtype": { "type": "DT_INT64" }
        }
      },
      {
        "name": "PartitionedCall/Const_35",
        "op": "Const",
        "attr": {
          "value": {
            "tensor": {
              "dtype": "DT_INT32",
              "tensorShape": { "dim": [{ "size": "1" }] }
            }
          },
          "dtype": { "type": "DT_INT32" }
        }
      },
      {
        "name": "PartitionedCall/transpose_64/perm",
        "op": "Const",
        "attr": {
          "dtype": { "type": "DT_INT32" },
          "value": {
            "tensor": {
              "dtype": "DT_INT32",
              "tensorShape": { "dim": [{ "size": "4" }] }
            }
          }
        }
      },
      {
        "name": "PartitionedCall/Reshape_10",
        "op": "Const",
        "attr": {
          "dtype": { "type": "DT_FLOAT" },
          "value": {
            "tensor": {
              "dtype": "DT_FLOAT",
              "tensorShape": {
                "dim": [
                  { "size": "5" },
                  { "size": "5" },
                  { "size": "240" },
                  { "size": "1" }
                ]
              }
            }
          }
        }
      },
      {
        "name": "unknown_42",
        "op": "Const",
        "attr": {
          "value": {
            "tensor": {
              "dtype": "DT_FLOAT",
              "tensorShape": { "dim": [{ "size": "240" }] }
            }
          },
          "dtype": { "type": "DT_FLOAT" }
        }
      },
      {
        "name": "PartitionedCall/transpose_65/perm",
        "op": "Const",
        "attr": {
          "dtype": { "type": "DT_INT32" },
          "value": {
            "tensor": {
              "dtype": "DT_INT32",
              "tensorShape": { "dim": [{ "size": "4" }] }
            }
          }
        }
      },
      {
        "name": "PartitionedCall/transpose_73/perm",
        "op": "Const",
        "attr": {
          "dtype": { "type": "DT_INT32" },
          "value": {
            "tensor": {
              "dtype": "DT_INT32",
              "tensorShape": { "dim": [{ "size": "4" }] }
            }
          }
        }
      },
      {
        "name": "PartitionedCall/split_24",
        "op": "Const",
        "attr": {
          "value": {
            "tensor": {
              "dtype": "DT_FLOAT",
              "tensorShape": {
                "dim": [
                  { "size": "1" },
                  { "size": "1" },
                  { "size": "240" },
                  { "size": "40" }
                ]
              }
            }
          },
          "dtype": { "type": "DT_FLOAT" }
        }
      },
      {
        "name": "unknown_48",
        "op": "Const",
        "attr": {
          "dtype": { "type": "DT_FLOAT" },
          "value": {
            "tensor": {
              "dtype": "DT_FLOAT",
              "tensorShape": { "dim": [{ "size": "40" }] }
            }
          }
        }
      },
      {
        "name": "PartitionedCall/transpose_74/perm",
        "op": "Const",
        "attr": {
          "dtype": { "type": "DT_INT32" },
          "value": {
            "tensor": {
              "dtype": "DT_INT32",
              "tensorShape": { "dim": [{ "size": "4" }] }
            }
          }
        }
      },
      {
        "name": "ConstantFolding/PartitionedCall/split_16-folded-1",
        "op": "Const",
        "attr": {
          "dtype": { "type": "DT_INT32" },
          "value": {
            "tensor": {
              "dtype": "DT_INT32",
              "tensorShape": { "dim": [{ "size": "2" }] }
            }
          }
        }
      },
      {
        "name": "PartitionedCall/transpose_52/perm",
        "op": "Const",
        "attr": {
          "value": {
            "tensor": {
              "dtype": "DT_INT32",
              "tensorShape": { "dim": [{ "size": "4" }] }
            }
          },
          "dtype": { "type": "DT_INT32" }
        }
      },
      {
        "name": "PartitionedCall/split_17",
        "op": "Const",
        "attr": {
          "dtype": { "type": "DT_FLOAT" },
          "value": {
            "tensor": {
              "dtype": "DT_FLOAT",
              "tensorShape": {
                "dim": [
                  { "size": "1" },
                  { "size": "1" },
                  { "size": "144" },
                  { "size": "6" }
                ]
              }
            }
          }
        }
      },
      {
        "name": "unknown_34",
        "op": "Const",
        "attr": {
          "dtype": { "type": "DT_FLOAT" },
          "value": {
            "tensor": {
              "dtype": "DT_FLOAT",
              "tensorShape": { "dim": [{ "size": "6" }] }
            }
          }
        }
      },
      {
        "name": "PartitionedCall/transpose_53/perm",
        "op": "Const",
        "attr": {
          "dtype": { "type": "DT_INT32" },
          "value": {
            "tensor": {
              "dtype": "DT_INT32",
              "tensorShape": { "dim": [{ "size": "4" }] }
            }
          }
        }
      },
      {
        "name": "PartitionedCall/transpose_55/perm",
        "op": "Const",
        "attr": {
          "dtype": { "type": "DT_INT32" },
          "value": {
            "tensor": {
              "dtype": "DT_INT32",
              "tensorShape": { "dim": [{ "size": "4" }] }
            }
          }
        }
      },
      {
        "name": "PartitionedCall/split_18",
        "op": "Const",
        "attr": {
          "value": {
            "tensor": {
              "dtype": "DT_FLOAT",
              "tensorShape": {
                "dim": [
                  { "size": "1" },
                  { "size": "1" },
                  { "size": "6" },
                  { "size": "144" }
                ]
              }
            }
          },
          "dtype": { "type": "DT_FLOAT" }
        }
      },
      {
        "name": "unknown_36",
        "op": "Const",
        "attr": {
          "dtype": { "type": "DT_FLOAT" },
          "value": {
            "tensor": {
              "dtype": "DT_FLOAT",
              "tensorShape": { "dim": [{ "size": "144" }] }
            }
          }
        }
      },
      {
        "name": "PartitionedCall/transpose_56/perm",
        "op": "Const",
        "attr": {
          "dtype": { "type": "DT_INT32" },
          "value": {
            "tensor": {
              "dtype": "DT_INT32",
              "tensorShape": { "dim": [{ "size": "4" }] }
            }
          }
        }
      },
      {
        "name": "PartitionedCall/onnx_tf_prefix_/_blocks.3/_depthwise_conv/static_padding/Constant_8",
        "op": "Const",
        "attr": {
          "value": { "tensor": { "dtype": "DT_FLOAT", "tensorShape": {} } },
          "dtype": { "type": "DT_FLOAT" }
        }
      },
      {
        "name": "ConstantFolding/PartitionedCall/split_11-folded-1",
        "op": "Const",
        "attr": {
          "value": {
            "tensor": {
              "dtype": "DT_INT32",
              "tensorShape": { "dim": [{ "size": "2" }] }
            }
          },
          "dtype": { "type": "DT_INT32" }
        }
      },
      {
        "name": "PartitionedCall/transpose_37/perm",
        "op": "Const",
        "attr": {
          "dtype": { "type": "DT_INT32" },
          "value": {
            "tensor": {
              "dtype": "DT_INT32",
              "tensorShape": { "dim": [{ "size": "4" }] }
            }
          }
        }
      },
      {
        "name": "PartitionedCall/split_12",
        "op": "Const",
        "attr": {
          "value": {
            "tensor": {
              "dtype": "DT_FLOAT",
              "tensorShape": {
                "dim": [
                  { "size": "1" },
                  { "size": "1" },
                  { "size": "144" },
                  { "size": "6" }
                ]
              }
            }
          },
          "dtype": { "type": "DT_FLOAT" }
        }
      },
      {
        "name": "unknown_24",
        "op": "Const",
        "attr": {
          "value": {
            "tensor": {
              "dtype": "DT_FLOAT",
              "tensorShape": { "dim": [{ "size": "6" }] }
            }
          },
          "dtype": { "type": "DT_FLOAT" }
        }
      },
      {
        "name": "PartitionedCall/transpose_38/perm",
        "op": "Const",
        "attr": {
          "value": {
            "tensor": {
              "dtype": "DT_INT32",
              "tensorShape": { "dim": [{ "size": "4" }] }
            }
          },
          "dtype": { "type": "DT_INT32" }
        }
      },
      {
        "name": "PartitionedCall/transpose_40/perm",
        "op": "Const",
        "attr": {
          "dtype": { "type": "DT_INT32" },
          "value": {
            "tensor": {
              "dtype": "DT_INT32",
              "tensorShape": { "dim": [{ "size": "4" }] }
            }
          }
        }
      },
      {
        "name": "PartitionedCall/split_13",
        "op": "Const",
        "attr": {
          "value": {
            "tensor": {
              "dtype": "DT_FLOAT",
              "tensorShape": {
                "dim": [
                  { "size": "1" },
                  { "size": "1" },
                  { "size": "6" },
                  { "size": "144" }
                ]
              }
            }
          },
          "dtype": { "type": "DT_FLOAT" }
        }
      },
      {
        "name": "unknown_26",
        "op": "Const",
        "attr": {
          "value": {
            "tensor": {
              "dtype": "DT_FLOAT",
              "tensorShape": { "dim": [{ "size": "144" }] }
            }
          },
          "dtype": { "type": "DT_FLOAT" }
        }
      },
      {
        "name": "PartitionedCall/transpose_41/perm",
        "op": "Const",
        "attr": {
          "value": {
            "tensor": {
              "dtype": "DT_INT32",
              "tensorShape": { "dim": [{ "size": "4" }] }
            }
          },
          "dtype": { "type": "DT_INT32" }
        }
      },
      {
        "name": "PartitionedCall/onnx_tf_prefix_/_blocks.2/_depthwise_conv/static_padding/Constant_8",
        "op": "Const",
        "attr": {
          "dtype": { "type": "DT_FLOAT" },
          "value": { "tensor": { "dtype": "DT_FLOAT", "tensorShape": {} } }
        }
      },
      {
        "name": "PartitionedCall/split_10",
        "op": "Const",
        "attr": {
          "dtype": { "type": "DT_FLOAT" },
          "value": {
            "tensor": {
              "dtype": "DT_FLOAT",
              "tensorShape": {
                "dim": [
                  { "size": "1" },
                  { "size": "1" },
                  { "size": "24" },
                  { "size": "144" }
                ]
              }
            }
          }
        }
      },
      {
        "name": "unknown_20",
        "op": "Const",
        "attr": {
          "dtype": { "type": "DT_FLOAT" },
          "value": {
            "tensor": {
              "dtype": "DT_FLOAT",
              "tensorShape": { "dim": [{ "size": "144" }] }
            }
          }
        }
      },
      {
        "name": "PartitionedCall/transpose_32/perm",
        "op": "Const",
        "attr": {
          "value": {
            "tensor": {
              "dtype": "DT_INT32",
              "tensorShape": { "dim": [{ "size": "4" }] }
            }
          },
          "dtype": { "type": "DT_INT32" }
        }
      },
      {
        "name": "PartitionedCall/onnx_tf_prefix_/_blocks.2/_depthwise_conv/static_padding/Concat",
        "op": "Const",
        "attr": {
          "dtype": { "type": "DT_INT64" },
          "value": {
            "tensor": {
              "dtype": "DT_INT64",
              "tensorShape": { "dim": [{ "size": "8" }] }
            }
          }
        }
      },
      {
        "name": "PartitionedCall/onnx_tf_prefix_/_blocks.2/_depthwise_conv/static_padding/Constant_2",
        "op": "Const",
        "attr": {
          "dtype": { "type": "DT_INT64" },
          "value": {
            "tensor": {
              "dtype": "DT_INT64",
              "tensorShape": { "dim": [{ "size": "2" }] }
            }
          }
        }
      },
      {
        "name": "PartitionedCall/Where_6",
        "op": "Const",
        "attr": {
          "dtype": { "type": "DT_INT64" },
          "value": {
            "tensor": {
              "dtype": "DT_INT64",
              "tensorShape": { "dim": [{}, { "size": "1" }] }
            }
          }
        }
      },
      {
        "name": "PartitionedCall/Cast_12",
        "op": "Const",
        "attr": {
          "dtype": { "type": "DT_INT64" },
          "value": {
            "tensor": {
              "dtype": "DT_INT64",
              "tensorShape": { "dim": [{ "size": "1" }] }
            }
          }
        }
      },
      {
        "name": "PartitionedCall/GatherV2_6",
        "op": "Const",
        "attr": {
          "value": {
            "tensor": { "dtype": "DT_INT64", "tensorShape": { "dim": [{}] } }
          },
          "dtype": { "type": "DT_INT64" }
        }
      },
      {
        "name": "PartitionedCall/zeros_12",
        "op": "Const",
        "attr": {
          "dtype": { "type": "DT_INT64" },
          "value": { "tensor": { "dtype": "DT_INT64", "tensorShape": {} } }
        }
      },
      {
        "name": "PartitionedCall/SelectV2_13",
        "op": "Const",
        "attr": {
          "value": {
            "tensor": {
              "dtype": "DT_INT64",
              "tensorShape": { "dim": [{ "size": "1" }] }
            }
          },
          "dtype": { "type": "DT_INT64" }
        }
      },
      {
        "name": "PartitionedCall/zeros_13",
        "op": "Const",
        "attr": {
          "value": { "tensor": { "dtype": "DT_INT64", "tensorShape": {} } },
          "dtype": { "type": "DT_INT64" }
        }
      },
      {
        "name": "PartitionedCall/Const_20",
        "op": "Const",
        "attr": {
          "value": { "tensor": { "dtype": "DT_INT64", "tensorShape": {} } },
          "dtype": { "type": "DT_INT64" }
        }
      },
      {
        "name": "PartitionedCall/Shape_28",
        "op": "Const",
        "attr": {
          "value": {
            "tensor": {
              "dtype": "DT_INT64",
              "tensorShape": { "dim": [{ "size": "2" }] }
            }
          },
          "dtype": { "type": "DT_INT64" }
        }
      },
      {
        "name": "PartitionedCall/SelectV2_14",
        "op": "Const",
        "attr": {
          "value": {
            "tensor": {
              "dtype": "DT_INT64",
              "tensorShape": { "dim": [{ "size": "1" }] }
            }
          },
          "dtype": { "type": "DT_INT64" }
        }
      },
      {
        "name": "PartitionedCall/Const_19",
        "op": "Const",
        "attr": {
          "value": { "tensor": { "dtype": "DT_INT64", "tensorShape": {} } },
          "dtype": { "type": "DT_INT64" }
        }
      },
      {
        "name": "PartitionedCall/ExpandDims_3",
        "op": "Const",
        "attr": {
          "dtype": { "type": "DT_INT64" },
          "value": {
            "tensor": {
              "dtype": "DT_INT64",
              "tensorShape": { "dim": [{ "size": "1" }, { "size": "1" }] }
            }
          }
        }
      },
      {
        "name": "PartitionedCall/Cast_14",
        "op": "Const",
        "attr": {
          "dtype": { "type": "DT_INT64" },
          "value": {
            "tensor": {
              "dtype": "DT_INT64",
              "tensorShape": { "dim": [{ "size": "1" }] }
            }
          }
        }
      },
      {
        "name": "PartitionedCall/onnx_tf_prefix_/_blocks.2/_depthwise_conv/static_padding/Constant_6",
        "op": "Const",
        "attr": {
          "value": {
            "tensor": {
              "dtype": "DT_INT64",
              "tensorShape": { "dim": [{ "size": "1" }] }
            }
          },
          "dtype": { "type": "DT_INT64" }
        }
      },
      {
        "name": "PartitionedCall/Const_21",
…
        { "name": "unknown_28", "shape": [24], "dtype": "float32" },
        {
          "name": "PartitionedCall/transpose_44/perm",
          "shape": [4],
          "dtype": "int32"
        },
        {
          "name": "ConstantFolding/PartitionedCall/split_6-folded-1",
          "shape": [2],
          "dtype": "int32"
        },
        {
          "name": "PartitionedCall/transpose_22/perm",
          "shape": [4],
          "dtype": "int32"
        },
        {
          "name": "PartitionedCall/split_7",
          "shape": [1, 1, 96, 4],
          "dtype": "float32"
        },
        { "name": "unknown_14", "shape": [4], "dtype": "float32" },
        {
          "name": "PartitionedCall/transpose_23/perm",
          "shape": [4],
          "dtype": "int32"
        },
        {
          "name": "PartitionedCall/transpose_25/perm",
          "shape": [4],
          "dtype": "int32"
        },
        {
          "name": "PartitionedCall/split_8",
          "shape": [1, 1, 4, 96],
          "dtype": "float32"
        },
        { "name": "unknown_16", "shape": [96], "dtype": "float32" },
        {
          "name": "PartitionedCall/transpose_26/perm",
          "shape": [4],
          "dtype": "int32"
        },
        {
          "name": "PartitionedCall/onnx_tf_prefix_/_blocks.1/_depthwise_conv/static_padding/Constant_8",
          "shape": [],
          "dtype": "float32"
        },
        {
          "name": "ConstantFolding/PartitionedCall/split_1-folded-1",
          "shape": [2],
          "dtype": "int32"
        },
        {
          "name": "PartitionedCall/transpose_7/perm",
          "shape": [4],
          "dtype": "int32"
        },
        {
          "name": "PartitionedCall/split_2",
          "shape": [1, 1, 32, 8],
          "dtype": "float32"
        },
        { "name": "unknown_4", "shape": [8], "dtype": "float32" },
        {
          "name": "PartitionedCall/transpose_8/perm",
          "shape": [4],
          "dtype": "int32"
        },
        {
          "name": "PartitionedCall/transpose_10/perm",
          "shape": [4],
          "dtype": "int32"
        },
        {
          "name": "PartitionedCall/split_3",
          "shape": [1, 1, 8, 32],
          "dtype": "float32"
        },
        { "name": "unknown_6", "shape": [32], "dtype": "float32" },
        {
          "name": "PartitionedCall/transpose_11/perm",
          "shape": [4],
          "dtype": "int32"
        },
        {
          "name": "PartitionedCall/onnx_tf_prefix_/_blocks.0/_depthwise_conv/static_padding/Constant_8",
          "shape": [],
          "dtype": "float32"
        },
        {
          "name": "PartitionedCall/onnx_tf_prefix_/_conv_stem/static_padding/Constant_8",
          "shape": [],
          "dtype": "float32"
        },
        {
          "name": "PartitionedCall/onnx_tf_prefix_/_conv_stem/static_padding/Concat",
          "shape": [8],
          "dtype": "int32"
        },
        {
          "name": "PartitionedCall/onnx_tf_prefix_/_conv_stem/static_padding/Constant_2",
          "shape": [2],
          "dtype": "int32"
        },
        { "name": "PartitionedCall/Where", "shape": [0, 1], "dtype": "int32" },
        { "name": "PartitionedCall/Cast", "shape": [1], "dtype": "int32" },
        { "name": "PartitionedCall/GatherV2", "shape": [0], "dtype": "int32" },
        { "name": "PartitionedCall/zeros", "shape": [], "dtype": "int32" },
        {
          "name": "PartitionedCall/SelectV2_1",
          "shape": [1],
          "dtype": "int32"
        },
        { "name": "PartitionedCall/zeros_1", "shape": [], "dtype": "int32" },
        { "name": "PartitionedCall/Const_2", "shape": [], "dtype": "int32" },
        { "name": "PartitionedCall/Shape_2", "shape": [2], "dtype": "int32" },
        {
          "name": "PartitionedCall/SelectV2_2",
          "shape": [1],
          "dtype": "int32"
        },
        { "name": "PartitionedCall/Const_1", "shape": [], "dtype": "int32" },
        {
          "name": "PartitionedCall/ExpandDims",
          "shape": [1, 1],
          "dtype": "int32"
        },
        { "name": "PartitionedCall/Cast_2", "shape": [1], "dtype": "int32" },
        {
          "name": "PartitionedCall/onnx_tf_prefix_/_conv_stem/static_padding/Constant_6",
          "shape": [1],
          "dtype": "int32"
        },
        { "name": "PartitionedCall/Const_3", "shape": [], "dtype": "int32" },
        {
          "name": "PartitionedCall/onnx_tf_prefix_/_conv_stem/static_padding/Transpose/perm",
          "shape": [2],
          "dtype": "int32"
        },
        {
          "name": "PartitionedCall/onnx_tf_prefix_/_conv_stem/static_padding/Constant_7",
          "shape": [1],
          "dtype": "int32"
        },
        {
          "name": "PartitionedCall/Where_1",
          "shape": [0, 1],
          "dtype": "int32"
        },
        { "name": "PartitionedCall/Cast_3", "shape": [1], "dtype": "int32" },
        {
          "name": "PartitionedCall/GatherV2_1",
          "shape": [0],
          "dtype": "int32"
        },
        { "name": "PartitionedCall/zeros_2", "shape": [], "dtype": "int32" },
        { "name": "PartitionedCall/zeros_3", "shape": [1], "dtype": "int32" },
        { "name": "PartitionedCall/Const_5", "shape": [1], "dtype": "int32" },
        {
          "name": "PartitionedCall/transpose_1/perm",
          "shape": [4],
          "dtype": "int32"
        },
        {
          "name": "PartitionedCall/split",
          "shape": [3, 3, 3, 32],
          "dtype": "float32"
        },
        { "name": "unknown_0", "shape": [32], "dtype": "float32" },
        {
          "name": "PartitionedCall/transpose_2/perm",
          "shape": [4],
          "dtype": "int32"
        },
        {
          "name": "PartitionedCall/onnx_tf_prefix_/_blocks.0/_depthwise_conv/static_padding/Concat",
          "shape": [8],
          "dtype": "int32"
        },
        {
          "name": "PartitionedCall/onnx_tf_prefix_/_blocks.0/_depthwise_conv/static_padding/Constant_2",
          "shape": [2],
          "dtype": "int32"
        },
        {
          "name": "PartitionedCall/Where_2",
          "shape": [0, 1],
          "dtype": "int32"
        },
        { "name": "PartitionedCall/Cast_4", "shape": [1], "dtype": "int32" },
        {
          "name": "PartitionedCall/GatherV2_2",
          "shape": [0],
          "dtype": "int32"
        },
        { "name": "PartitionedCall/zeros_4", "shape": [], "dtype": "int32" },
        {
          "name": "PartitionedCall/SelectV2_5",
          "shape": [1],
          "dtype": "int32"
        },
        { "name": "PartitionedCall/zeros_5", "shape": [], "dtype": "int32" },
        { "name": "PartitionedCall/Const_8", "shape": [], "dtype": "int32" },
        { "name": "PartitionedCall/Shape_8", "shape": [2], "dtype": "int32" },
        {
          "name": "PartitionedCall/SelectV2_6",
          "shape": [1],
          "dtype": "int32"
        },
        { "name": "PartitionedCall/Const_7", "shape": [], "dtype": "int32" },
        {
          "name": "PartitionedCall/ExpandDims_1",
          "shape": [1, 1],
          "dtype": "int32"
        },
        { "name": "PartitionedCall/Cast_6", "shape": [1], "dtype": "int32" },
        {
          "name": "PartitionedCall/onnx_tf_prefix_/_blocks.0/_depthwise_conv/static_padding/Constant_6",
          "shape": [1],
          "dtype": "int32"
        },
        { "name": "PartitionedCall/Const_9", "shape": [], "dtype": "int32" },
        {
          "name": "PartitionedCall/onnx_tf_prefix_/_blocks.0/_depthwise_conv/static_padding/Transpose/perm",
          "shape": [2],
          "dtype": "int32"
        },
        {
          "name": "PartitionedCall/onnx_tf_prefix_/_blocks.0/_depthwise_conv/static_padding/Constant_7",
          "shape": [1],
          "dtype": "int32"
        },
        {
          "name": "PartitionedCall/Where_3",
          "shape": [0, 1],
          "dtype": "int32"
        },
        { "name": "PartitionedCall/Cast_7", "shape": [1], "dtype": "int32" },
        {
          "name": "PartitionedCall/GatherV2_3",
          "shape": [0],
          "dtype": "int32"
        },
        { "name": "PartitionedCall/zeros_6", "shape": [], "dtype": "int32" },
        { "name": "PartitionedCall/zeros_7", "shape": [1], "dtype": "int32" },
        { "name": "PartitionedCall/Const_11", "shape": [1], "dtype": "int32" },
        {
          "name": "PartitionedCall/transpose_4/perm",
          "shape": [4],
          "dtype": "int32"
        },
        {
          "name": "PartitionedCall/Reshape_2",
          "shape": [3, 3, 32, 1],
          "dtype": "float32"
        },
        { "name": "unknown_2", "shape": [32], "dtype": "float32" },
        {
          "name": "PartitionedCall/transpose_5/perm",
          "shape": [4],
          "dtype": "int32"
        },
        {
          "name": "PartitionedCall/transpose_13/perm",
          "shape": [4],
          "dtype": "int32"
        },
        {
          "name": "PartitionedCall/split_4",
          "shape": [1, 1, 32, 16],
          "dtype": "float32"
        },
        { "name": "unknown_8", "shape": [16], "dtype": "float32" },
        {
          "name": "PartitionedCall/split_5",
          "shape": [1, 1, 16, 96],
          "dtype": "float32"
        },
        { "name": "unknown_10", "shape": [96], "dtype": "float32" },
        {
          "name": "PartitionedCall/transpose_17/perm",
          "shape": [4],
          "dtype": "int32"
        },
        {
          "name": "PartitionedCall/onnx_tf_prefix_/_blocks.1/_depthwise_conv/static_padding/Concat",
          "shape": [8],
          "dtype": "int32"
        },
        {
          "name": "PartitionedCall/onnx_tf_prefix_/_blocks.1/_depthwise_conv/static_padding/Constant_2",
          "shape": [2],
          "dtype": "int32"
        },
        {
          "name": "PartitionedCall/Where_4",
          "shape": [0, 1],
          "dtype": "int32"
        },
        { "name": "PartitionedCall/Cast_8", "shape": [1], "dtype": "int32" },
        {
          "name": "PartitionedCall/GatherV2_4",
          "shape": [0],
          "dtype": "int32"
        },
        { "name": "PartitionedCall/zeros_8", "shape": [], "dtype": "int32" },
        {
          "name": "PartitionedCall/SelectV2_9",
          "shape": [1],
          "dtype": "int32"
        },
        { "name": "PartitionedCall/zeros_9", "shape": [], "dtype": "int32" },
        { "name": "PartitionedCall/Const_14", "shape": [], "dtype": "int32" },
        { "name": "PartitionedCall/Shape_18", "shape": [2], "dtype": "int32" },
        {
          "name": "PartitionedCall/SelectV2_10",
          "shape": [1],
          "dtype": "int32"
        },
        { "name": "PartitionedCall/Const_13", "shape": [], "dtype": "int32" },
        {
          "name": "PartitionedCall/ExpandDims_2",
          "shape": [1, 1],
          "dtype": "int32"
        },
        { "name": "PartitionedCall/Cast_10", "shape": [1], "dtype": "int32" },
        {
          "name": "PartitionedCall/onnx_tf_prefix_/_blocks.1/_depthwise_conv/static_padding/Constant_6",
          "shape": [1],
          "dtype": "int32"
        },
        { "name": "PartitionedCall/Const_15", "shape": [], "dtype": "int32" },
        {
          "name": "PartitionedCall/onnx_tf_prefix_/_blocks.1/_depthwise_conv/static_padding/Transpose/perm",
          "shape": [2],
          "dtype": "int32"
        },
        {
          "name": "PartitionedCall/onnx_tf_prefix_/_blocks.1/_depthwise_conv/static_padding/Constant_7",
          "shape": [1],
          "dtype": "int32"
        },
        {
          "name": "PartitionedCall/Where_5",
          "shape": [0, 1],
          "dtype": "int32"
        },
        { "name": "PartitionedCall/Cast_11", "shape": [1], "dtype": "int32" },
        {
          "name": "PartitionedCall/GatherV2_5",
          "shape": [0],
          "dtype": "int32"
        },
        { "name": "PartitionedCall/zeros_10", "shape": [], "dtype": "int32" },
        { "name": "PartitionedCall/zeros_11", "shape": [1], "dtype": "int32" },
        { "name": "PartitionedCall/Const_17", "shape": [1], "dtype": "int32" },
        {
          "name": "PartitionedCall/transpose_19/perm",
          "shape": [4],
          "dtype": "int32"
        },
        {
          "name": "PartitionedCall/Reshape_4",
          "shape": [3, 3, 96, 1],
          "dtype": "float32"
        },
        { "name": "unknown_12", "shape": [96], "dtype": "float32" },
        {
          "name": "PartitionedCall/transpose_20/perm",
          "shape": [4],
          "dtype": "int32"
        },
        {
          "name": "PartitionedCall/transpose_28/perm",
          "shape": [4],
          "dtype": "int32"
        },
        {
          "name": "PartitionedCall/split_9",
          "shape": [1, 1, 96, 24],
          "dtype": "float32"
        },
        { "name": "unknown_18", "shape": [24], "dtype": "float32" },
        {
          "name": "PartitionedCall/transpose_29/perm",
          "shape": [4],
          "dtype": "int32"
        },
        {
          "name": "PartitionedCall/transpose_46/perm",
          "shape": [4],
          "dtype": "int32"
        },
        {
          "name": "PartitionedCall/split_15",
          "shape": [1, 1, 24, 144],
          "dtype": "float32"
        },
        { "name": "unknown_30", "shape": [144], "dtype": "float32" },
        {
          "name": "PartitionedCall/transpose_47/perm",
          "shape": [4],
          "dtype": "int32"
        },
        {
          "name": "PartitionedCall/onnx_tf_prefix_/_blocks.3/_depthwise_conv/static_padding/Concat",
          "shape": [8],
          "dtype": "int32"
        },
        {
          "name": "PartitionedCall/onnx_tf_prefix_/_blocks.3/_depthwise_conv/static_padding/Constant_2",
          "shape": [2],
          "dtype": "int32"
        },
        {
          "name": "PartitionedCall/Where_8",
          "shape": [0, 1],
          "dtype": "int32"
        },
        { "name": "PartitionedCall/Cast_16", "shape": [1], "dtype": "int32" },
        {
          "name": "PartitionedCall/GatherV2_8",
          "shape": [0],
          "dtype": "int32"
        },
        { "name": "PartitionedCall/zeros_16", "shape": [], "dtype": "int32" },
        {
          "name": "PartitionedCall/SelectV2_17",
          "shape": [1],
          "dtype": "int32"
        },
        { "name": "PartitionedCall/zeros_17", "shape": [], "dtype": "int32" },
        { "name": "PartitionedCall/Const_26", "shape": [], "dtype": "int32" },
        { "name": "PartitionedCall/Shape_38", "shape": [2], "dtype": "int32" },
        {
          "name": "PartitionedCall/SelectV2_18",
          "shape": [1],
          "dtype": "int32"
        },
        { "name": "PartitionedCall/Const_25", "shape": [], "dtype": "int32" },
        {
          "name": "PartitionedCall/ExpandDims_4",
          "shape": [1, 1],
          "dtype": "int32"
        },
        { "name": "PartitionedCall/Cast_18", "shape": [1], "dtype": "int32" },
        {
          "name": "PartitionedCall/onnx_tf_prefix_/_blocks.3/_depthwise_conv/static_padding/Constant_6",
          "shape": [1],
          "dtype": "int32"
        },
        { "name": "PartitionedCall/Const_27", "shape": [], "dtype": "int32" },
        {
          "name": "PartitionedCall/onnx_tf_prefix_/_blocks.3/_depthwise_conv/static_padding/Transpose/perm",
          "shape": [2],
          "dtype": "int32"
        },
        {
          "name": "PartitionedCall/onnx_tf_prefix_/_blocks.3/_depthwise_conv/static_padding/Constant_7",
          "shape": [1],
          "dtype": "int32"
        },
        {
          "name": "PartitionedCall/Where_9",
          "shape": [0, 1],
          "dtype": "int32"
        },
        { "name": "PartitionedCall/Cast_19", "shape": [1], "dtype": "int32" },
        {
          "name": "PartitionedCall/GatherV2_9",
          "shape": [0],
          "dtype": "int32"
        },
        { "name": "PartitionedCall/zeros_18", "shape": [], "dtype": "int32" },
        { "name": "PartitionedCall/zeros_19", "shape": [1], "dtype": "int32" },
        { "name": "PartitionedCall/Const_29", "shape": [1], "dtype": "int32" },
        {
          "name": "PartitionedCall/transpose_49/perm",
          "shape": [4],
          "dtype": "int32"
        },
        {
          "name": "PartitionedCall/Reshape_8",
          "shape": [5, 5, 144, 1],
          "dtype": "float32"
        },
        { "name": "unknown_32", "shape": [144], "dtype": "float32" },
        {
          "name": "PartitionedCall/transpose_50/perm",
          "shape": [4],
          "dtype": "int32"
        },
        {
          "name": "PartitionedCall/transpose_58/perm",
          "shape": [4],
          "dtype": "int32"
        },
        {
          "name": "PartitionedCall/split_19",
          "shape": [1, 1, 144, 40],
          "dtype": "float32"
        },
        { "name": "unknown_38", "shape": [40], "dtype": "float32" },
        {
          "name": "PartitionedCall/transpose_59/perm",
          "shape": [4],
          "dtype": "int32"
        },
        {
          "name": "PartitionedCall/transpose_76/perm",
          "shape": [4],
          "dtype": "int32"
        },
        {
          "name": "PartitionedCall/split_25",
          "shape": [1, 1, 40, 240],
          "dtype": "float32"
        },
        { "name": "unknown_50", "shape": [240], "dtype": "float32" },
        {
          "name": "PartitionedCall/transpose_77/perm",
          "shape": [4],
          "dtype": "int32"
        },
        {
          "name": "PartitionedCall/onnx_tf_prefix_/_blocks.5/_depthwise_conv/static_padding/Concat",
          "shape": [8],
          "dtype": "int32"
        },
        {
          "name": "PartitionedCall/onnx_tf_prefix_/_blocks.5/_depthwise_conv/static_padding/Constant_2",
          "shape": [2],
          "dtype": "int32"
        },
        {
          "name": "PartitionedCall/Where_12",
          "shape": [0, 1],
          "dtype": "int32"
        },
        { "name": "PartitionedCall/Cast_24", "shape": [1], "dtype": "int32" },
        {
          "name": "PartitionedCall/GatherV2_12",
          "shape": [0],
          "dtype": "int32"
        },
        { "name": "PartitionedCall/zeros_24", "shape": [], "dtype": "int32" },
        {
          "name": "PartitionedCall/SelectV2_25",
          "shape": [1],
          "dtype": "int32"
        },
        { "name": "PartitionedCall/zeros_25", "shape": [], "dtype": "int32" },
        { "name": "PartitionedCall/Const_38", "shape": [], "dtype": "int32" },
        { "name": "PartitionedCall/Shape_58", "shape": [2], "dtype": "int32" },
        {
          "name": "PartitionedCall/SelectV2_26",
          "shape": [1],
          "dtype": "int32"
        },
        { "name": "PartitionedCall/Const_37", "shape": [], "dtype": "int32" },
        {
          "name": "PartitionedCall/ExpandDims_6",
          "shape": [1, 1],
          "dtype": "int32"
        },
        { "name": "PartitionedCall/Cast_26", "shape": [1], "dtype": "int32" },
        {
          "name": "PartitionedCall/onnx_tf_prefix_/_blocks.5/_depthwise_conv/static_padding/Constant_6",
          "shape": [1],
          "dtype": "int32"
        },
        { "name": "PartitionedCall/Const_39", "shape": [], "dtype": "int32" },
        {
          "name": "PartitionedCall/onnx_tf_prefix_/_blocks.5/_depthwise_conv/static_padding/Transpose/perm",
          "shape": [2],
          "dtype": "int32"
        },
        {
          "name": "PartitionedCall/onnx_tf_prefix_/_blocks.5/_depthwise_conv/static_padding/Constant_7",
          "shape": [1],
          "dtype": "int32"
        },
        {
          "name": "PartitionedCall/Where_13",
          "shape": [0, 1],
          "dtype": "int32"
        },
        { "name": "PartitionedCall/Cast_27", "shape": [1], "dtype": "int32" },
        {
          "name": "PartitionedCall/GatherV2_13",
          "shape": [0],
          "dtype": "int32"
        },
        { "name": "PartitionedCall/zeros_26", "shape": [], "dtype": "int32" },
        { "name": "PartitionedCall/zeros_27", "shape": [1], "dtype": "int32" },
        { "name": "PartitionedCall/Const_41", "shape": [1], "dtype": "int32" },
        {
          "name": "PartitionedCall/transpose_79/perm",
          "shape": [4],
          "dtype": "int32"
        },
        {
          "name": "PartitionedCall/Reshape_12",
          "shape": [3, 3, 240, 1],
          "dtype": "float32"
        },
        { "name": "unknown_52", "shape": [240], "dtype": "float32" },
        {
          "name": "PartitionedCall/transpose_80/perm",
          "shape": [4],
          "dtype": "int32"
        },
        {
          "name": "PartitionedCall/transpose_88/perm",
          "shape": [4],
          "dtype": "int32"
        },
        {
          "name": "PartitionedCall/split_29",
          "shape": [1, 1, 240, 80],
          "dtype": "float32"
        },
        { "name": "unknown_58", "shape": [80], "dtype": "float32" },
        {
          "name": "PartitionedCall/transpose_89/perm",
          "shape": [4],
          "dtype": "int32"
        },
        {
          "name": "PartitionedCall/transpose_121/perm",
          "shape": [4],
          "dtype": "int32"
        },
        {
          "name": "PartitionedCall/split_40",
          "shape": [1, 1, 80, 480],
          "dtype": "float32"
        },
        { "name": "unknown_80", "shape": [480], "dtype": "float32" },
        {
          "name": "PartitionedCall/transpose_122/perm",
          "shape": [4],
          "dtype": "int32"
        },
        {
          "name": "PartitionedCall/onnx_tf_prefix_/_blocks.8/_depthwise_conv/static_padding/Concat",
          "shape": [8],
          "dtype": "int32"
        },
        {
          "name": "PartitionedCall/onnx_tf_prefix_/_blocks.8/_depthwise_conv/static_padding/Constant_2",
          "shape": [2],
          "dtype": "int32"
        },
        {
          "name": "PartitionedCall/Where_18",
          "shape": [0, 1],
          "dtype": "int32"
        },
        { "name": "PartitionedCall/Cast_36", "shape": [1], "dtype": "int32" },
        {
          "name": "PartitionedCall/GatherV2_18",
          "shape": [0],
          "dtype": "int32"
        },
        { "name": "PartitionedCall/zeros_36", "shape": [], "dtype": "int32" },
        {
          "name": "PartitionedCall/SelectV2_37",
          "shape": [1],
          "dtype": "int32"
        },
        { "name": "PartitionedCall/zeros_37", "shape": [], "dtype": "int32" },
        { "name": "PartitionedCall/Const_56", "shape": [], "dtype": "int32" },
        { "name": "PartitionedCall/Shape_88", "shape": [2], "dtype": "int32" },
        {
          "name": "PartitionedCall/SelectV2_38",
          "shape": [1],
          "dtype": "int32"
        },
        { "name": "PartitionedCall/Const_55", "shape": [], "dtype": "int32" },
        {
          "name": "PartitionedCall/ExpandDims_9",
          "shape": [1, 1],
          "dtype": "int32"
        },
        { "name": "PartitionedCall/Cast_38", "shape": [1], "dtype": "int32" },
        {
          "name": "PartitionedCall/onnx_tf_prefix_/_blocks.8/_depthwise_conv/static_padding/Constant_6",
          "shape": [1],
          "dtype": "int32"
        },
        { "name": "PartitionedCall/Const_57", "shape": [], "dtype": "int32" },
        {
          "name": "PartitionedCall/onnx_tf_prefix_/_blocks.8/_depthwise_conv/static_padding/Transpose/perm",
          "shape": [2],
          "dtype": "int32"
        },
        {
          "name": "PartitionedCall/onnx_tf_prefix_/_blocks.8/_depthwise_conv/static_padding/Constant_7",
          "shape": [1],
          "dtype": "int32"
        },
        {
          "name": "PartitionedCall/Where_19",
          "shape": [0, 1],
          "dtype": "int32"
        },
        { "name": "PartitionedCall/Cast_39", "shape": [1], "dtype": "int32" },
        {
          "name": "PartitionedCall/GatherV2_19",
          "shape": [0],
          "dtype": "int32"
        },
        { "name": "PartitionedCall/zeros_38", "shape": [], "dtype": "int32" },
        { "name": "PartitionedCall/zeros_39", "shape": [1], "dtype": "int32" },
        { "name": "PartitionedCall/Const_59", "shape": [1], "dtype": "int32" },
        {
          "name": "PartitionedCall/transpose_124/perm",
          "shape": [4],
          "dtype": "int32"
        },
        {
          "name": "PartitionedCall/Reshape_18",
          "shape": [5, 5, 480, 1],
          "dtype": "float32"
        },
        { "name": "unknown_82", "shape": [480], "dtype": "float32" },
        {
          "name": "PartitionedCall/transpose_125/perm",
          "shape": [4],
          "dtype": "int32"
        },
        {
          "name": "PartitionedCall/transpose_133/perm",
          "shape": [4],
          "dtype": "int32"
        },
        {
          "name": "PartitionedCall/split_44",
          "shape": [1, 1, 480, 112],
          "dtype": "float32"
        },
        { "name": "unknown_88", "shape": [112], "dtype": "float32" },
        {
          "name": "PartitionedCall/transpose_134/perm",
          "shape": [4],
          "dtype": "int32"
        },
        {
          "name": "PartitionedCall/transpose_166/perm",
          "shape": [4],
          "dtype": "int32"
        },
        {
          "name": "PartitionedCall/split_55",
          "shape": [1, 1, 112, 672],
          "dtype": "float32"
        },
        { "name": "unknown_110", "shape": [672], "dtype": "float32" },
        {
          "name": "PartitionedCall/transpose_167/perm",
          "shape": [4],
          "dtype": "int32"
        },
        {
          "name": "PartitionedCall/onnx_tf_prefix_/_blocks.11/_depthwise_conv/static_padding/Concat",
          "shape": [8],
          "dtype": "int32"
        },
        {
          "name": "PartitionedCall/onnx_tf_prefix_/_blocks.11/_depthwise_conv/static_padding/Constant_2",
          "shape": [2],
          "dtype": "int32"
        },
        {
          "name": "PartitionedCall/Where_24",
          "shape": [0, 1],
          "dtype": "int32"
        },
        { "name": "PartitionedCall/Cast_48", "shape": [1], "dtype": "int32" },
        {
          "name": "PartitionedCall/GatherV2_24",
          "shape": [0],
          "dtype": "int32"
        },
        { "name": "PartitionedCall/zeros_48", "shape": [], "dtype": "int32" },
        {
          "name": "PartitionedCall/SelectV2_49",
          "shape": [1],
          "dtype": "int32"
        },
        { "name": "PartitionedCall/zeros_49", "shape": [], "dtype": "int32" },
        { "name": "PartitionedCall/Const_74", "shape": [], "dtype": "int32" },
        { "name": "PartitionedCall/Shape_118", "shape": [2], "dtype": "int32" },
        {
          "name": "PartitionedCall/SelectV2_50",
          "shape": [1],
          "dtype": "int32"
        },
        { "name": "PartitionedCall/Const_73", "shape": [], "dtype": "int32" },
        {
          "name": "PartitionedCall/ExpandDims_12",
          "shape": [1, 1],
          "dtype": "int32"
        },
        { "name": "PartitionedCall/Cast_50", "shape": [1], "dtype": "int32" },
        {
          "name": "PartitionedCall/onnx_tf_prefix_/_blocks.11/_depthwise_conv/static_padding/Constant_6",
          "shape": [1],
          "dtype": "int32"
        },
        { "name": "PartitionedCall/Const_75", "shape": [], "dtype": "int32" },
        {
          "name": "PartitionedCall/onnx_tf_prefix_/_blocks.11/_depthwise_conv/static_padding/Transpose/perm",
          "shape": [2],
          "dtype": "int32"
        },
        {
          "name": "PartitionedCall/onnx_tf_prefix_/_blocks.11/_depthwise_conv/static_padding/Constant_7",
          "shape": [1],
          "dtype": "int32"
        },
        {
          "name": "PartitionedCall/Where_25",
          "shape": [0, 1],
          "dtype": "int32"
        },
        { "name": "PartitionedCall/Cast_51", "shape": [1], "dtype": "int32" },
        {
          "name": "PartitionedCall/GatherV2_25",
          "shape": [0],
          "dtype": "int32"
        },
        { "name": "PartitionedCall/zeros_50", "shape": [], "dtype": "int32" },
        { "name": "PartitionedCall/zeros_51", "shape": [1], "dtype": "int32" },
        { "name": "PartitionedCall/Const_77", "shape": [1], "dtype": "int32" },
        {
          "name": "PartitionedCall/transpose_169/perm",
          "shape": [4],
          "dtype": "int32"
        },
        {
          "name": "PartitionedCall/Reshape_24",
          "shape": [5, 5, 672, 1],
          "dtype": "float32"
        },
        { "name": "unknown_112", "shape": [672], "dtype": "float32" },
        {
          "name": "PartitionedCall/transpose_170/perm",
          "shape": [4],
          "dtype": "int32"
        },
        {
          "name": "PartitionedCall/transpose_178/perm",
          "shape": [4],
          "dtype": "int32"
        },
        {
          "name": "PartitionedCall/split_59",
          "shape": [1, 1, 672, 192],
          "dtype": "float32"
        },
        { "name": "unknown_118", "shape": [192], "dtype": "float32" },
        {
          "name": "PartitionedCall/transpose_179/perm",
          "shape": [4],
          "dtype": "int32"
        },
        {
          "name": "PartitionedCall/transpose_226/perm",
          "shape": [4],
          "dtype": "int32"
        },
        {
          "name": "PartitionedCall/split_75",
          "shape": [1, 1, 192, 1152],
          "dtype": "float32"
        },
        { "name": "unknown_150", "shape": [1152], "dtype": "float32" },
        {
          "name": "PartitionedCall/transpose_227/perm",
          "shape": [4],
          "dtype": "int32"
        },
        {
          "name": "PartitionedCall/onnx_tf_prefix_/_blocks.15/_depthwise_conv/static_padding/Concat",
          "shape": [8],
          "dtype": "int32"
        },
        {
          "name": "PartitionedCall/onnx_tf_prefix_/_blocks.15/_depthwise_conv/static_padding/Constant_2",
          "shape": [2],
          "dtype": "int32"
        },
        {
          "name": "PartitionedCall/Where_32",
          "shape": [0, 1],
          "dtype": "int32"
        },
        { "name": "PartitionedCall/Cast_64", "shape": [1], "dtype": "int32" },
        {
          "name": "PartitionedCall/GatherV2_32",
          "shape": [0],
          "dtype": "int32"
        },
        { "name": "PartitionedCall/zeros_64", "shape": [], "dtype": "int32" },
        {
          "name": "PartitionedCall/SelectV2_65",
          "shape": [1],
          "dtype": "int32"
        },
        { "name": "PartitionedCall/zeros_65", "shape": [], "dtype": "int32" },
        { "name": "PartitionedCall/Const_98", "shape": [], "dtype": "int32" },
        { "name": "PartitionedCall/Shape_158", "shape": [2], "dtype": "int32" },
        {
          "name": "PartitionedCall/SelectV2_66",
          "shape": [1],
          "dtype": "int32"
        },
        { "name": "PartitionedCall/Const_97", "shape": [], "dtype": "int32" },
        {
          "name": "PartitionedCall/ExpandDims_16",
          "shape": [1, 1],
          "dtype": "int32"
        },
        { "name": "PartitionedCall/Cast_66", "shape": [1], "dtype": "int32" },
        {
          "name": "PartitionedCall/onnx_tf_prefix_/_blocks.15/_depthwise_conv/static_padding/Constant_6",
          "shape": [1],
          "dtype": "int32"
        },
        { "name": "PartitionedCall/Const_99", "shape": [], "dtype": "int32" },
        {
          "name": "PartitionedCall/onnx_tf_prefix_/_blocks.15/_depthwise_conv/static_padding/Transpose/perm",
          "shape": [2],
          "dtype": "int32"
        },
        {
          "name": "PartitionedCall/onnx_tf_prefix_/_blocks.15/_depthwise_conv/static_padding/Constant_7",
          "shape": [1],
          "dtype": "int32"
        },
        {
          "name": "PartitionedCall/Where_33",
          "shape": [0, 1],
          "dtype": "int32"
        },
        { "name": "PartitionedCall/Cast_67", "shape": [1], "dtype": "int32" },
        {
          "name": "PartitionedCall/GatherV2_33",
          "shape": [0],
          "dtype": "int32"
        },
        { "name": "PartitionedCall/zeros_66", "shape": [], "dtype": "int32" },
        { "name": "PartitionedCall/zeros_67", "shape": [1], "dtype": "int32" },
        { "name": "PartitionedCall/Const_101", "shape": [1], "dtype": "int32" },
        {
          "name": "PartitionedCall/transpose_229/perm",
          "shape": [4],
          "dtype": "int32"
        },
        {
          "name": "PartitionedCall/Reshape_32",
          "shape": [3, 3, 1152, 1],
          "dtype": "float32"
        },
        { "name": "unknown_152", "shape": [1152], "dtype": "float32" },
        {
          "name": "PartitionedCall/transpose_230/perm",
          "shape": [4],
          "dtype": "int32"
        },
        {
          "name": "PartitionedCall/transpose_238/perm",
          "shape": [4],
          "dtype": "int32"
        },
        {
          "name": "PartitionedCall/split_79",
          "shape": [1, 1, 1152, 320],
          "dtype": "float32"
        },
        { "name": "unknown_158", "shape": [320], "dtype": "float32" },
        {
          "name": "PartitionedCall/split_80",
          "shape": [1, 1, 320, 1280],
          "dtype": "float32"
        },
        { "name": "unknown_160", "shape": [1280], "dtype": "float32" },
        {
          "name": "PartitionedCall/transpose_242/perm",
          "shape": [4],
          "dtype": "int32"
        },
        {
          "name": "ConstantFolding/PartitionedCall/split_81-folded-1",
          "shape": [2],
          "dtype": "int32"
        },
        {
          "name": "PartitionedCall/strided_slice_1/stack",
          "shape": [1],
          "dtype": "int32"
        },
        {
          "name": "PartitionedCall/strided_slice_1/stack_1",
          "shape": [1],
          "dtype": "int32"
        },
        {
          "name": "PartitionedCall/strided_slice_1/stack_2",
          "shape": [1],
          "dtype": "int32"
        },
        { "name": "PartitionedCall/Const_104", "shape": [1], "dtype": "int32" },
        {
          "name": "PartitionedCall/flatten/strided_slice/stack",
          "shape": [1],
          "dtype": "int32"
        },
        {
          "name": "PartitionedCall/flatten/strided_slice/stack_1",
          "shape": [1],
          "dtype": "int32"
        },
        {
          "name": "PartitionedCall/flatten/strided_slice/stack_2",
          "shape": [1],
          "dtype": "int32"
        },
        {
          "name": "PartitionedCall/flatten/Reshape/shape/1",
          "shape": [],
          "dtype": "int32"
        },
        {
          "name": "PartitionedCall/transpose_243",
          "shape": [1280, 5],
          "dtype": "float32"
        },
        { "name": "PartitionedCall/mul_1", "shape": [5], "dtype": "float32" },
        {
          "name": "PartitionedCall/cond_15/else/_317/cond_15/range_1",
          "shape": [4],
          "dtype": "int32"
        },
        {
          "name": "PartitionedCall/cond_15/else/_317/cond_15/GatherV2_1/axis",
          "shape": [],
          "dtype": "int32"
        },
        {
          "name": "PartitionedCall/cond_15/else/_317/cond_15/range",
          "shape": [4],
          "dtype": "int32"
        },
        {
          "name": "PartitionedCall/cond_15/else/_317/cond_15/GatherV2/axis",
          "shape": [],
          "dtype": "int32"
        },
        {
          "name": "PartitionedCall/cond_15/then/_316/cond_15/Reshape/shape",
          "shape": [2],
          "dtype": "int32"
        },
        {
          "name": "PartitionedCall/cond_15/then/_316/cond_15/transpose/perm",
          "shape": [2],
          "dtype": "int32"
        },
        {
          "name": "PartitionedCall/cond_14/else/_307/cond_14/range_1",
          "shape": [4],
          "dtype": "int32"
        },
        {
          "name": "PartitionedCall/cond_14/else/_307/cond_14/GatherV2_1/axis",
          "shape": [],
          "dtype": "int32"
        },
        {
          "name": "PartitionedCall/cond_14/else/_307/cond_14/range",
          "shape": [4],
          "dtype": "int32"
        },
        {
          "name": "PartitionedCall/cond_14/else/_307/cond_14/GatherV2/axis",
          "shape": [],
          "dtype": "int32"
        },
        {
          "name": "PartitionedCall/cond_14/then/_306/cond_14/Reshape/shape",
          "shape": [2],
          "dtype": "int32"
        },
        {
          "name": "PartitionedCall/cond_14/then/_306/cond_14/transpose/perm",
          "shape": [2],
          "dtype": "int32"
        },
        {
          "name": "PartitionedCall/cond_13/else/_297/cond_13/range_1",
          "shape": [4],
          "dtype": "int32"
        },
        {
          "name": "PartitionedCall/cond_13/else/_297/cond_13/GatherV2_1/axis",
          "shape": [],
          "dtype": "int32"
        },
        {
          "name": "PartitionedCall/cond_13/else/_297/cond_13/range",
          "shape": [4],
          "dtype": "int32"
        },
        {
          "name": "PartitionedCall/cond_13/else/_297/cond_13/GatherV2/axis",
          "shape": [],
          "dtype": "int32"
        },
        {
          "name": "PartitionedCall/cond_13/then/_296/cond_13/Reshape/shape",
          "shape": [2],
          "dtype": "int32"
        },
        {
          "name": "PartitionedCall/cond_13/then/_296/cond_13/transpose/perm",
          "shape": [2],
          "dtype": "int32"
        },
        {
          "name": "PartitionedCall/cond_11/else/_277/cond_11/range_1",
          "shape": [4],
          "dtype": "int32"
        },
        {
          "name": "PartitionedCall/cond_11/else/_277/cond_11/GatherV2_1/axis",
          "shape": [],
          "dtype": "int32"
        },
        {
          "name": "PartitionedCall/cond_11/else/_277/cond_11/range",
          "shape": [4],
          "dtype": "int32"
        },
        {
          "name": "PartitionedCall/cond_11/else/_277/cond_11/GatherV2/axis",
          "shape": [],
          "dtype": "int32"
        },
        {
          "name": "PartitionedCall/cond_11/then/_276/cond_11/Reshape/shape",
          "shape": [2],
          "dtype": "int32"
        },
        {
          "name": "PartitionedCall/cond_11/then/_276/cond_11/transpose/perm",
          "shape": [2],
          "dtype": "int32"
        },
        {
          "name": "PartitionedCall/cond_10/else/_267/cond_10/range_1",
          "shape": [4],
          "dtype": "int32"
        },
        {
          "name": "PartitionedCall/cond_10/else/_267/cond_10/GatherV2_1/axis",
          "shape": [],
          "dtype": "int32"
        },
        {
          "name": "PartitionedCall/cond_10/else/_267/cond_10/range",
          "shape": [4],
          "dtype": "int32"
        },
        {
          "name": "PartitionedCall/cond_10/else/_267/cond_10/GatherV2/axis",
          "shape": [],
          "dtype": "int32"
        },
        {
          "name": "PartitionedCall/cond_10/then/_266/cond_10/Reshape/shape",
          "shape": [2],
          "dtype": "int32"
        },
        {
          "name": "PartitionedCall/cond_10/then/_266/cond_10/transpose/perm",
          "shape": [2],
          "dtype": "int32"
        },
        {
          "name": "PartitionedCall/cond_8/else/_247/cond_8/range_1",
          "shape": [4],
          "dtype": "int32"
        },
        {
          "name": "PartitionedCall/cond_8/else/_247/cond_8/GatherV2_1/axis",
          "shape": [],
          "dtype": "int32"
        },
        {
          "name": "PartitionedCall/cond_8/else/_247/cond_8/range",
          "shape": [4],
          "dtype": "int32"
        },
        {
          "name": "PartitionedCall/cond_8/else/_247/cond_8/GatherV2/axis",
          "shape": [],
          "dtype": "int32"
        },
        {
          "name": "PartitionedCall/cond_8/then/_246/cond_8/Reshape/shape",
          "shape": [2],
          "dtype": "int32"
        },
        {
          "name": "PartitionedCall/cond_8/then/_246/cond_8/transpose/perm",
          "shape": [2],
          "dtype": "int32"
        },
        {
          "name": "PartitionedCall/cond_7/else/_237/cond_7/range_1",
          "shape": [4],
          "dtype": "int32"
        },
        {
          "name": "PartitionedCall/cond_7/else/_237/cond_7/GatherV2_1/axis",
          "shape": [],
          "dtype": "int32"
        },
        {
          "name": "PartitionedCall/cond_7/else/_237/cond_7/range",
          "shape": [4],
          "dtype": "int32"
        },
        {
          "name": "PartitionedCall/cond_7/else/_237/cond_7/GatherV2/axis",
          "shape": [],
          "dtype": "int32"
        },
        {
          "name": "PartitionedCall/cond_7/then/_236/cond_7/Reshape/shape",
          "shape": [2],
          "dtype": "int32"
        },
        {
          "name": "PartitionedCall/cond_7/then/_236/cond_7/transpose/perm",
          "shape": [2],
          "dtype": "int32"
        },
        {
          "name": "PartitionedCall/cond_5/else/_217/cond_5/range_1",
          "shape": [4],
          "dtype": "int32"
        },
        {
          "name": "PartitionedCall/cond_5/else/_217/cond_5/GatherV2_1/axis",
          "shape": [],
          "dtype": "int32"
        },
        {
          "name": "PartitionedCall/cond_5/else/_217/cond_5/range",
          "shape": [4],
          "dtype": "int32"
        },
        {
          "name": "PartitionedCall/cond_5/else/_217/cond_5/GatherV2/axis",
          "shape": [],
          "dtype": "int32"
        },
        {
          "name": "PartitionedCall/cond_5/then/_216/cond_5/Reshape/shape",
          "shape": [2],
          "dtype": "int32"
        },
        {
          "name": "PartitionedCall/cond_5/then/_216/cond_5/transpose/perm",
          "shape": [2],
          "dtype": "int32"
        },
        {
          "name": "PartitionedCall/cond_3/else/_197/cond_3/range_1",
          "shape": [4],
          "dtype": "int32"
        },
        {
          "name": "PartitionedCall/cond_3/else/_197/cond_3/GatherV2_1/axis",
          "shape": [],
          "dtype": "int32"
        },
        {
          "name": "PartitionedCall/cond_3/else/_197/cond_3/range",
          "shape": [4],
          "dtype": "int32"
        },
        {
          "name": "PartitionedCall/cond_3/else/_197/cond_3/GatherV2/axis",
          "shape": [],
          "dtype": "int32"
        },
        {
          "name": "PartitionedCall/cond_3/then/_196/cond_3/Reshape/shape",
          "shape": [2],
          "dtype": "int32"
        },
        {
          "name": "PartitionedCall/cond_3/then/_196/cond_3/transpose/perm",
          "shape": [2],
          "dtype": "int32"
        },
        {
          "name": "PartitionedCall/cond/else/_167/cond/Shape",
          "shape": [4],
          "dtype": "int32"
        },
        {
          "name": "PartitionedCall/cond/else/_167/cond/range_1",
          "shape": [4],
          "dtype": "int32"
        },
        {
          "name": "PartitionedCall/cond/else/_167/cond/GatherV2_1/axis",
          "shape": [],
          "dtype": "int32"
        },
        {
          "name": "PartitionedCall/cond/else/_167/cond/range",
          "shape": [4],
          "dtype": "int32"
        },
        {
          "name": "PartitionedCall/cond/else/_167/cond/GatherV2/axis",
          "shape": [],
          "dtype": "int32"
        },
        {
          "name": "PartitionedCall/cond/then/_166/cond/Reshape/shape",
          "shape": [2],
          "dtype": "int32"
        },
        {
          "name": "PartitionedCall/cond/then/_166/cond/transpose/perm",
          "shape": [2],
          "dtype": "int32"
        },
        {
          "name": "PartitionedCall/cond_1/else/_177/cond_1/range_1",
          "shape": [4],
          "dtype": "int32"
        },
        {
          "name": "PartitionedCall/cond_1/else/_177/cond_1/GatherV2_1/axis",
          "shape": [],
          "dtype": "int32"
        },
        {
          "name": "PartitionedCall/cond_1/else/_177/cond_1/range",
          "shape": [4],
          "dtype": "int32"
        },
        {
          "name": "PartitionedCall/cond_1/else/_177/cond_1/GatherV2/axis",
          "shape": [],
          "dtype": "int32"
        },
        {
          "name": "PartitionedCall/cond_1/then/_176/cond_1/Reshape/shape",
          "shape": [2],
          "dtype": "int32"
        },
        {
          "name": "PartitionedCall/cond_1/then/_176/cond_1/transpose/perm",
          "shape": [2],
          "dtype": "int32"
        },
        {
          "name": "PartitionedCall/cond_2/else/_187/cond_2/range_1",
          "shape": [4],
          "dtype": "int32"
        },
        {
          "name": "PartitionedCall/cond_2/else/_187/cond_2/GatherV2_1/axis",
          "shape": [],
          "dtype": "int32"
        },
        {
          "name": "PartitionedCall/cond_2/else/_187/cond_2/range",
          "shape": [4],
          "dtype": "int32"
        },
        {
          "name": "PartitionedCall/cond_2/else/_187/cond_2/GatherV2/axis",
          "shape": [],
          "dtype": "int32"
        },
        {
          "name": "PartitionedCall/cond_2/then/_186/cond_2/Reshape/shape",
          "shape": [2],
          "dtype": "int32"
        },
        {
          "name": "PartitionedCall/cond_2/then/_186/cond_2/transpose/perm",
          "shape": [2],
          "dtype": "int32"
        },
        {
          "name": "PartitionedCall/cond_4/else/_207/cond_4/range_1",
          "shape": [4],
          "dtype": "int32"
        },
        {
          "name": "PartitionedCall/cond_4/else/_207/cond_4/GatherV2_1/axis",
          "shape": [],
          "dtype": "int32"
        },
        {
          "name": "PartitionedCall/cond_4/else/_207/cond_4/range",
          "shape": [4],
          "dtype": "int32"
        },
        {
          "name": "PartitionedCall/cond_4/else/_207/cond_4/GatherV2/axis",
          "shape": [],
          "dtype": "int32"
        },
        {
          "name": "PartitionedCall/cond_4/then/_206/cond_4/Reshape/shape",
          "shape": [2],
          "dtype": "int32"
        },
        {
          "name": "PartitionedCall/cond_4/then/_206/cond_4/transpose/perm",
          "shape": [2],
          "dtype": "int32"
        },
        {
          "name": "PartitionedCall/cond_6/else/_227/cond_6/range_1",
          "shape": [4],
          "dtype": "int32"
        },
        {
          "name": "PartitionedCall/cond_6/else/_227/cond_6/GatherV2_1/axis",
          "shape": [],
          "dtype": "int32"
        },
        {
          "name": "PartitionedCall/cond_6/else/_227/cond_6/range",
          "shape": [4],
          "dtype": "int32"
        },
        {
          "name": "PartitionedCall/cond_6/else/_227/cond_6/GatherV2/axis",
          "shape": [],
          "dtype": "int32"
        },
        {
          "name": "PartitionedCall/cond_6/then/_226/cond_6/Reshape/shape",
          "shape": [2],
          "dtype": "int32"
        },
        {
          "name": "PartitionedCall/cond_6/then/_226/cond_6/transpose/perm",
          "shape": [2],
          "dtype": "int32"
        },
        {
          "name": "PartitionedCall/cond_9/else/_257/cond_9/range_1",
          "shape": [4],
          "dtype": "int32"
        },
        {
          "name": "PartitionedCall/cond_9/else/_257/cond_9/GatherV2_1/axis",
          "shape": [],
          "dtype": "int32"
        },
        {
          "name": "PartitionedCall/cond_9/else/_257/cond_9/range",
          "shape": [4],
          "dtype": "int32"
        },
        {
          "name": "PartitionedCall/cond_9/else/_257/cond_9/GatherV2/axis",
          "shape": [],
          "dtype": "int32"
        },
        {
          "name": "PartitionedCall/cond_9/then/_256/cond_9/Reshape/shape",
          "shape": [2],
          "dtype": "int32"
        },
        {
          "name": "PartitionedCall/cond_9/then/_256/cond_9/transpose/perm",
          "shape": [2],
          "dtype": "int32"
        },
        {
          "name": "PartitionedCall/cond_12/else/_287/cond_12/range_1",
          "shape": [4],
          "dtype": "int32"
        },
        {
          "name": "PartitionedCall/cond_12/else/_287/cond_12/GatherV2_1/axis",
          "shape": [],
          "dtype": "int32"
        },
        {
          "name": "PartitionedCall/cond_12/else/_287/cond_12/range",
          "shape": [4],
          "dtype": "int32"
        },
        {
          "name": "PartitionedCall/cond_12/else/_287/cond_12/GatherV2/axis",
          "shape": [],
          "dtype": "int32"
        },
        {
          "name": "PartitionedCall/cond_12/then/_286/cond_12/Reshape/shape",
          "shape": [2],
          "dtype": "int32"
        },
        {
          "name": "PartitionedCall/cond_12/then/_286/cond_12/transpose/perm",
          "shape": [2],
          "dtype": "int32"
        },
        {
          "name": "PartitionedCall/cond_16/else/_327/cond_16/range_1",
          "shape": [4],
          "dtype": "int32"
        },
        {
          "name": "PartitionedCall/cond_16/else/_327/cond_16/GatherV2_1/axis",
          "shape": [],
          "dtype": "int32"
        },
        {
          "name": "PartitionedCall/cond_16/else/_327/cond_16/range",
          "shape": [4],
          "dtype": "int32"
        },
        {
          "name": "PartitionedCall/cond_16/else/_327/cond_16/GatherV2/axis",
          "shape": [],
          "dtype": "int32"
        },
        {
          "name": "PartitionedCall/cond_16/then/_326/cond_16/Reshape/shape",
          "shape": [2],
          "dtype": "int32"
        },
        {
          "name": "PartitionedCall/cond_16/then/_326/cond_16/transpose/perm",
          "shape": [2],
          "dtype": "int32"
        }
      ]
    }
  ]
}
